{"format": "graph-model", "generatedBy": "2.14.0", "convertedBy": "TensorFlow.js Converter v4.13.0", "signature": {"inputs": {"keras_layer_1_input": {"name": "keras_layer_1_input:0", "dtype": "DT_FLOAT", "tensorShape": {"dim": [{"size": "-1"}, {"size": "224"}, {"size": "224"}, {"size": "3"}]}}}, "outputs": {"dense_1": {"name": "Identity:0", "dtype": "DT_FLOAT", "tensorShape": {"dim": [{"size": "-1"}, {"size": "11"}]}}}}, "modelTopology": {"node": [{"name": "StatefulPartitionedCall/sequential_1/dense_1/MatMul/ReadVariableOp", "op": "Const", "attr": {"dtype": {"type": "DT_FLOAT"}, "value": {"tensor": {"dtype": "DT_FLOAT", "tensorShape": {"dim": [{"size": "1024"}, {"size": "11"}]}}}}}, {"name": "StatefulPartitionedCall/sequential_1/dense_1/BiasAdd/ReadVariableOp", "op": "Const", "attr": {"dtype": {"type": "DT_FLOAT"}, "value": {"tensor": {"dtype": "DT_FLOAT", "tensorShape": {"dim": [{"size": "11"}]}}}}}, {"name": "keras_layer_1_input", "op": "Placeholder", "attr": {"shape": {"shape": {"dim": [{"size": "-1"}, {"size": "224"}, {"size": "224"}, {"size": "3"}]}}, "dtype": {"type": "DT_FLOAT"}}}, {"name": "StatefulPartitionedCall/sequential_1/keras_layer_1/StatefulPartitionedCall/StatefulPartitionedCall/StatefulPartitionedCall/predict/MobilenetV3/Conv/Conv2D_weights", "op": "Const", "attr": {"value": {"tensor": {"dtype": "DT_FLOAT", "tensorShape": {"dim": [{"size": "3"}, {"size": "3"}, {"size": "3"}, {"size": "16"}]}}}, "dtype": {"type": "DT_FLOAT"}}}, {"name": "StatefulPartitionedCall/sequential_1/keras_layer_1/StatefulPartitionedCall/StatefulPartitionedCall/StatefulPartitionedCall/predict/MobilenetV3/Conv/Conv2D_bn_offset", "op": "Const", "attr": {"dtype": {"type": "DT_FLOAT"}, "value": {"tensor": {"dtype": "DT_FLOAT", "tensorShape": {"dim": [{"size": "16"}]}}}}}, {"name": "StatefulPartitionedCall/sequential_1/keras_layer_1/StatefulPartitionedCall/StatefulPartitionedCall/StatefulPartitionedCall/predict/MobilenetV3/expanded_conv/depthwise/depthwise_weights", "op": "Const", "attr": {"dtype": {"type": "DT_FLOAT"}, "value": {"tensor": {"dtype": "DT_FLOAT", "tensorShape": {"dim": [{"size": "3"}, {"size": "3"}, {"size": "16"}, {"size": "1"}]}}}}}, {"name": "StatefulPartitionedCall/sequential_1/keras_layer_1/StatefulPartitionedCall/StatefulPartitionedCall/StatefulPartitionedCall/predict/MobilenetV3/expanded_conv/depthwise/depthwise_bn_offset", "op": "Const", "attr": {"value": {"tensor": {"dtype": "DT_FLOAT", "tensorShape": {"dim": [{"size": "16"}]}}}, "dtype": {"type": "DT_FLOAT"}}}, {"name": "StatefulPartitionedCall/sequential_1/keras_layer_1/StatefulPartitionedCall/StatefulPartitionedCall/StatefulPartitionedCall/predict/MobilenetV3/expanded_conv_10/expand/Conv2D_weights", "op": "Const", "attr": {"dtype": {"type": "DT_FLOAT"}, "value": {"tensor": {"dtype": "DT_FLOAT", "tensorShape": {"dim": [{"size": "1"}, {"size": "1"}, {"size": "72"}, {"size": "432"}]}}}}}, {"name": "StatefulPartitionedCall/sequential_1/keras_layer_1/StatefulPartitionedCall/StatefulPartitionedCall/StatefulPartitionedCall/predict/MobilenetV3/expanded_conv/project/Conv2D_weights", "op": "Const", "attr": {"value": {"tensor": {"dtype": "DT_FLOAT", "tensorShape": {"dim": [{"size": "1"}, {"size": "1"}, {"size": "16"}, {"size": "16"}]}}}, "dtype": {"type": "DT_FLOAT"}}}, {"name": "StatefulPartitionedCall/sequential_1/keras_layer_1/StatefulPartitionedCall/StatefulPartitionedCall/StatefulPartitionedCall/predict/MobilenetV3/expanded_conv_10/expand/Conv2D_bn_offset", "op": "Const", "attr": {"value": {"tensor": {"dtype": "DT_FLOAT", "tensorShape": {"dim": [{"size": "432"}]}}}, "dtype": {"type": "DT_FLOAT"}}}, {"name": "StatefulPartitionedCall/sequential_1/keras_layer_1/StatefulPartitionedCall/StatefulPartitionedCall/StatefulPartitionedCall/predict/MobilenetV3/expanded_conv/project/Conv2D_bn_offset", "op": "Const", "attr": {"dtype": {"type": "DT_FLOAT"}, "value": {"tensor": {"dtype": "DT_FLOAT", "tensorShape": {"dim": [{"size": "16"}]}}}}}, {"name": "StatefulPartitionedCall/sequential_1/keras_layer_1/StatefulPartitionedCall/StatefulPartitionedCall/StatefulPartitionedCall/predict/MobilenetV3/expanded_conv_1/expand/Conv2D_weights", "op": "Const", "attr": {"value": {"tensor": {"dtype": "DT_FLOAT", "tensorShape": {"dim": [{"size": "1"}, {"size": "1"}, {"size": "16"}, {"size": "72"}]}}}, "dtype": {"type": "DT_FLOAT"}}}, {"name": "StatefulPartitionedCall/sequential_1/keras_layer_1/StatefulPartitionedCall/StatefulPartitionedCall/StatefulPartitionedCall/predict/MobilenetV3/expanded_conv_1/expand/Conv2D_bn_offset", "op": "Const", "attr": {"dtype": {"type": "DT_FLOAT"}, "value": {"tensor": {"dtype": "DT_FLOAT", "tensorShape": {"dim": [{"size": "72"}]}}}}}, {"name": "StatefulPartitionedCall/sequential_1/keras_layer_1/StatefulPartitionedCall/StatefulPartitionedCall/StatefulPartitionedCall/predict/MobilenetV3/expanded_conv_1/depthwise/depthwise_weights", "op": "Const", "attr": {"dtype": {"type": "DT_FLOAT"}, "value": {"tensor": {"dtype": "DT_FLOAT", "tensorShape": {"dim": [{"size": "3"}, {"size": "3"}, {"size": "72"}, {"size": "1"}]}}}}}, {"name": "StatefulPartitionedCall/sequential_1/keras_layer_1/StatefulPartitionedCall/StatefulPartitionedCall/StatefulPartitionedCall/predict/MobilenetV3/expanded_conv_1/depthwise/depthwise_bn_offset", "op": "Const", "attr": {"value": {"tensor": {"dtype": "DT_FLOAT", "tensorShape": {"dim": [{"size": "72"}]}}}, "dtype": {"type": "DT_FLOAT"}}}, {"name": "StatefulPartitionedCall/sequential_1/keras_layer_1/StatefulPartitionedCall/StatefulPartitionedCall/StatefulPartitionedCall/predict/MobilenetV3/expanded_conv_1/project/Conv2D_weights", "op": "Const", "attr": {"value": {"tensor": {"dtype": "DT_FLOAT", "tensorShape": {"dim": [{"size": "1"}, {"size": "1"}, {"size": "72"}, {"size": "24"}]}}}, "dtype": {"type": "DT_FLOAT"}}}, {"name": "StatefulPartitionedCall/sequential_1/keras_layer_1/StatefulPartitionedCall/StatefulPartitionedCall/StatefulPartitionedCall/predict/MobilenetV3/expanded_conv_1/project/Conv2D_bn_offset", "op": "Const", "attr": {"dtype": {"type": "DT_FLOAT"}, "value": {"tensor": {"dtype": "DT_FLOAT", "tensorShape": {"dim": [{"size": "24"}]}}}}}, {"name": "StatefulPartitionedCall/sequential_1/keras_layer_1/StatefulPartitionedCall/StatefulPartitionedCall/StatefulPartitionedCall/predict/MobilenetV3/expanded_conv_2/expand/Conv2D_weights", "op": "Const", "attr": {"dtype": {"type": "DT_FLOAT"}, "value": {"tensor": {"dtype": "DT_FLOAT", "tensorShape": {"dim": [{"size": "1"}, {"size": "1"}, {"size": "24"}, {"size": "88"}]}}}}}, {"name": "StatefulPartitionedCall/sequential_1/keras_layer_1/StatefulPartitionedCall/StatefulPartitionedCall/StatefulPartitionedCall/predict/MobilenetV3/expanded_conv_2/expand/Conv2D_bn_offset", "op": "Const", "attr": {"dtype": {"type": "DT_FLOAT"}, "value": {"tensor": {"dtype": "DT_FLOAT", "tensorShape": {"dim": [{"size": "88"}]}}}}}, {"name": "StatefulPartitionedCall/sequential_1/keras_layer_1/StatefulPartitionedCall/StatefulPartitionedCall/StatefulPartitionedCall/predict/MobilenetV3/expanded_conv_2/depthwise/depthwise_weights", "op": "Const", "attr": {"value": {"tensor": {"dtype": "DT_FLOAT", "tensorShape": {"dim": [{"size": "3"}, {"size": "3"}, {"size": "88"}, {"size": "1"}]}}}, "dtype": {"type": "DT_FLOAT"}}}, {"name": "StatefulPartitionedCall/sequential_1/keras_layer_1/StatefulPartitionedCall/StatefulPartitionedCall/StatefulPartitionedCall/predict/MobilenetV3/expanded_conv_2/depthwise/depthwise_bn_offset", "op": "Const", "attr": {"value": {"tensor": {"dtype": "DT_FLOAT", "tensorShape": {"dim": [{"size": "88"}]}}}, "dtype": {"type": "DT_FLOAT"}}}, {"name": "StatefulPartitionedCall/sequential_1/keras_layer_1/StatefulPartitionedCall/StatefulPartitionedCall/StatefulPartitionedCall/predict/MobilenetV3/expanded_conv_2/project/Conv2D_weights", "op": "Const", "attr": {"value": {"tensor": {"dtype": "DT_FLOAT", "tensorShape": {"dim": [{"size": "1"}, {"size": "1"}, {"size": "88"}, {"size": "24"}]}}}, "dtype": {"type": "DT_FLOAT"}}}, {"name": "StatefulPartitionedCall/sequential_1/keras_layer_1/StatefulPartitionedCall/StatefulPartitionedCall/StatefulPartitionedCall/predict/MobilenetV3/expanded_conv_10/depthwise/depthwise_weights", "op": "Const", "attr": {"value": {"tensor": {"dtype": "DT_FLOAT", "tensorShape": {"dim": [{"size": "5"}, {"size": "5"}, {"size": "432"}, {"size": "1"}]}}}, "dtype": {"type": "DT_FLOAT"}}}, {"name": "StatefulPartitionedCall/sequential_1/keras_layer_1/StatefulPartitionedCall/StatefulPartitionedCall/StatefulPartitionedCall/predict/MobilenetV3/expanded_conv_2/project/Conv2D_bn_offset", "op": "Const", "attr": {"value": {"tensor": {"dtype": "DT_FLOAT", "tensorShape": {"dim": [{"size": "24"}]}}}, "dtype": {"type": "DT_FLOAT"}}}, {"name": "StatefulPartitionedCall/sequential_1/keras_layer_1/StatefulPartitionedCall/StatefulPartitionedCall/StatefulPartitionedCall/predict/MobilenetV3/expanded_conv_3/expand/Conv2D_weights", "op": "Const", "attr": {"value": {"tensor": {"dtype": "DT_FLOAT", "tensorShape": {"dim": [{"size": "1"}, {"size": "1"}, {"size": "24"}, {"size": "96"}]}}}, "dtype": {"type": "DT_FLOAT"}}}, {"name": "StatefulPartitionedCall/sequential_1/keras_layer_1/StatefulPartitionedCall/StatefulPartitionedCall/StatefulPartitionedCall/predict/MobilenetV3/expanded_conv_3/expand/Conv2D_bn_offset", "op": "Const", "attr": {"value": {"tensor": {"dtype": "DT_FLOAT", "tensorShape": {"dim": [{"size": "96"}]}}}, "dtype": {"type": "DT_FLOAT"}}}, {"name": "StatefulPartitionedCall/sequential_1/keras_layer_1/StatefulPartitionedCall/StatefulPartitionedCall/StatefulPartitionedCall/predict/MobilenetV3/expanded_conv_3/depthwise/depthwise_weights", "op": "Const", "attr": {"value": {"tensor": {"dtype": "DT_FLOAT", "tensorShape": {"dim": [{"size": "5"}, {"size": "5"}, {"size": "96"}, {"size": "1"}]}}}, "dtype": {"type": "DT_FLOAT"}}}, {"name": "StatefulPartitionedCall/sequential_1/keras_layer_1/StatefulPartitionedCall/StatefulPartitionedCall/StatefulPartitionedCall/predict/MobilenetV3/expanded_conv_3/depthwise/depthwise_bn_offset", "op": "Const", "attr": {"value": {"tensor": {"dtype": "DT_FLOAT", "tensorShape": {"dim": [{"size": "96"}]}}}, "dtype": {"type": "DT_FLOAT"}}}, {"name": "StatefulPartitionedCall/sequential_1/keras_layer_1/StatefulPartitionedCall/StatefulPartitionedCall/StatefulPartitionedCall/predict/MobilenetV3/expanded_conv_10/depthwise/depthwise_bn_offset", "op": "Const", "attr": {"dtype": {"type": "DT_FLOAT"}, "value": {"tensor": {"dtype": "DT_FLOAT", "tensorShape": {"dim": [{"size": "432"}]}}}}}, {"name": "StatefulPartitionedCall/sequential_1/keras_layer_1/StatefulPartitionedCall/StatefulPartitionedCall/StatefulPartitionedCall/predict/MobilenetV3/expanded_conv_3/project/Conv2D_weights", "op": "Const", "attr": {"value": {"tensor": {"dtype": "DT_FLOAT", "tensorShape": {"dim": [{"size": "1"}, {"size": "1"}, {"size": "96"}, {"size": "32"}]}}}, "dtype": {"type": "DT_FLOAT"}}}, {"name": "StatefulPartitionedCall/sequential_1/keras_layer_1/StatefulPartitionedCall/StatefulPartitionedCall/StatefulPartitionedCall/predict/MobilenetV3/expanded_conv_3/project/Conv2D_bn_offset", "op": "Const", "attr": {"dtype": {"type": "DT_FLOAT"}, "value": {"tensor": {"dtype": "DT_FLOAT", "tensorShape": {"dim": [{"size": "32"}]}}}}}, {"name": "StatefulPartitionedCall/sequential_1/keras_layer_1/StatefulPartitionedCall/StatefulPartitionedCall/StatefulPartitionedCall/predict/MobilenetV3/expanded_conv_4/expand/Conv2D_weights", "op": "Const", "attr": {"value": {"tensor": {"dtype": "DT_FLOAT", "tensorShape": {"dim": [{"size": "1"}, {"size": "1"}, {"size": "32"}, {"size": "192"}]}}}, "dtype": {"type": "DT_FLOAT"}}}, {"name": "StatefulPartitionedCall/sequential_1/keras_layer_1/StatefulPartitionedCall/StatefulPartitionedCall/StatefulPartitionedCall/predict/MobilenetV3/expanded_conv_4/expand/Conv2D_bn_offset", "op": "Const", "attr": {"value": {"tensor": {"dtype": "DT_FLOAT", "tensorShape": {"dim": [{"size": "192"}]}}}, "dtype": {"type": "DT_FLOAT"}}}, {"name": "StatefulPartitionedCall/sequential_1/keras_layer_1/StatefulPartitionedCall/StatefulPartitionedCall/StatefulPartitionedCall/predict/MobilenetV3/expanded_conv_4/depthwise/depthwise_weights", "op": "Const", "attr": {"dtype": {"type": "DT_FLOAT"}, "value": {"tensor": {"dtype": "DT_FLOAT", "tensorShape": {"dim": [{"size": "5"}, {"size": "5"}, {"size": "192"}, {"size": "1"}]}}}}}, {"name": "StatefulPartitionedCall/sequential_1/keras_layer_1/StatefulPartitionedCall/StatefulPartitionedCall/StatefulPartitionedCall/predict/MobilenetV3/expanded_conv_4/depthwise/depthwise_bn_offset", "op": "Const", "attr": {"value": {"tensor": {"dtype": "DT_FLOAT", "tensorShape": {"dim": [{"size": "192"}]}}}, "dtype": {"type": "DT_FLOAT"}}}, {"name": "StatefulPartitionedCall/sequential_1/keras_layer_1/StatefulPartitionedCall/StatefulPartitionedCall/StatefulPartitionedCall/predict/MobilenetV3/expanded_conv_4/project/Conv2D_weights", "op": "Const", "attr": {"value": {"tensor": {"dtype": "DT_FLOAT", "tensorShape": {"dim": [{"size": "1"}, {"size": "1"}, {"size": "192"}, {"size": "32"}]}}}, "dtype": {"type": "DT_FLOAT"}}}, {"name": "StatefulPartitionedCall/sequential_1/keras_layer_1/StatefulPartitionedCall/StatefulPartitionedCall/StatefulPartitionedCall/predict/MobilenetV3/expanded_conv_4/project/Conv2D_bn_offset", "op": "Const", "attr": {"dtype": {"type": "DT_FLOAT"}, "value": {"tensor": {"dtype": "DT_FLOAT", "tensorShape": {"dim": [{"size": "32"}]}}}}}, {"name": "StatefulPartitionedCall/sequential_1/keras_layer_1/StatefulPartitionedCall/StatefulPartitionedCall/StatefulPartitionedCall/predict/MobilenetV3/expanded_conv_5/expand/Conv2D_weights", "op": "Const", "attr": {"value": {"tensor": {"dtype": "DT_FLOAT", "tensorShape": {"dim": [{"size": "1"}, {"size": "1"}, {"size": "32"}, {"size": "192"}]}}}, "dtype": {"type": "DT_FLOAT"}}}, {"name": "StatefulPartitionedCall/sequential_1/keras_layer_1/StatefulPartitionedCall/StatefulPartitionedCall/StatefulPartitionedCall/predict/MobilenetV3/expanded_conv_5/expand/Conv2D_bn_offset", "op": "Const", "attr": {"dtype": {"type": "DT_FLOAT"}, "value": {"tensor": {"dtype": "DT_FLOAT", "tensorShape": {"dim": [{"size": "192"}]}}}}}, {"name": "StatefulPartitionedCall/sequential_1/keras_layer_1/StatefulPartitionedCall/StatefulPartitionedCall/StatefulPartitionedCall/predict/MobilenetV3/expanded_conv_5/depthwise/depthwise_weights", "op": "Const", "attr": {"dtype": {"type": "DT_FLOAT"}, "value": {"tensor": {"dtype": "DT_FLOAT", "tensorShape": {"dim": [{"size": "5"}, {"size": "5"}, {"size": "192"}, {"size": "1"}]}}}}}, {"name": "StatefulPartitionedCall/sequential_1/keras_layer_1/StatefulPartitionedCall/StatefulPartitionedCall/StatefulPartitionedCall/predict/MobilenetV3/expanded_conv_5/depthwise/depthwise_bn_offset", "op": "Const", "attr": {"dtype": {"type": "DT_FLOAT"}, "value": {"tensor": {"dtype": "DT_FLOAT", "tensorShape": {"dim": [{"size": "192"}]}}}}}, {"name": "StatefulPartitionedCall/sequential_1/keras_layer_1/StatefulPartitionedCall/StatefulPartitionedCall/StatefulPartitionedCall/predict/MobilenetV3/expanded_conv_5/project/Conv2D_weights", "op": "Const", "attr": {"dtype": {"type": "DT_FLOAT"}, "value": {"tensor": {"dtype": "DT_FLOAT", "tensorShape": {"dim": [{"size": "1"}, {"size": "1"}, {"size": "192"}, {"size": "32"}]}}}}}, {"name": "StatefulPartitionedCall/sequential_1/keras_layer_1/StatefulPartitionedCall/StatefulPartitionedCall/StatefulPartitionedCall/predict/MobilenetV3/expanded_conv_5/project/Conv2D_bn_offset", "op": "Const", "attr": {"dtype": {"type": "DT_FLOAT"}, "value": {"tensor": {"dtype": "DT_FLOAT", "tensorShape": {"dim": [{"size": "32"}]}}}}}, {"name": "StatefulPartitionedCall/sequential_1/keras_layer_1/StatefulPartitionedCall/StatefulPartitionedCall/StatefulPartitionedCall/predict/MobilenetV3/expanded_conv_6/expand/Conv2D_weights", "op": "Const", "attr": {"value": {"tensor": {"dtype": "DT_FLOAT", "tensorShape": {"dim": [{"size": "1"}, {"size": "1"}, {"size": "32"}, {"size": "96"}]}}}, "dtype": {"type": "DT_FLOAT"}}}, {"name": "StatefulPartitionedCall/sequential_1/keras_layer_1/StatefulPartitionedCall/StatefulPartitionedCall/StatefulPartitionedCall/predict/MobilenetV3/expanded_conv_6/expand/Conv2D_bn_offset", "op": "Const", "attr": {"value": {"tensor": {"dtype": "DT_FLOAT", "tensorShape": {"dim": [{"size": "96"}]}}}, "dtype": {"type": "DT_FLOAT"}}}, {"name": "StatefulPartitionedCall/sequential_1/keras_layer_1/StatefulPartitionedCall/StatefulPartitionedCall/StatefulPartitionedCall/predict/MobilenetV3/expanded_conv_6/depthwise/depthwise_weights", "op": "Const", "attr": {"value": {"tensor": {"dtype": "DT_FLOAT", "tensorShape": {"dim": [{"size": "5"}, {"size": "5"}, {"size": "96"}, {"size": "1"}]}}}, "dtype": {"type": "DT_FLOAT"}}}, {"name": "StatefulPartitionedCall/sequential_1/keras_layer_1/StatefulPartitionedCall/StatefulPartitionedCall/StatefulPartitionedCall/predict/MobilenetV3/expanded_conv_6/depthwise/depthwise_bn_offset", "op": "Const", "attr": {"dtype": {"type": "DT_FLOAT"}, "value": {"tensor": {"dtype": "DT_FLOAT", "tensorShape": {"dim": [{"size": "96"}]}}}}}, {"name": "StatefulPartitionedCall/sequential_1/keras_layer_1/StatefulPartitionedCall/StatefulPartitionedCall/StatefulPartitionedCall/predict/MobilenetV3/expanded_conv_10/project/Conv2D_weights", "op": "Const", "attr": {"dtype": {"type": "DT_FLOAT"}, "value": {"tensor": {"dtype": "DT_FLOAT", "tensorShape": {"dim": [{"size": "1"}, {"size": "1"}, {"size": "432"}, {"size": "72"}]}}}}}, {"name": "StatefulPartitionedCall/sequential_1/keras_layer_1/StatefulPartitionedCall/StatefulPartitionedCall/StatefulPartitionedCall/predict/MobilenetV3/expanded_conv_6/project/Conv2D_weights", "op": "Const", "attr": {"value": {"tensor": {"dtype": "DT_FLOAT", "tensorShape": {"dim": [{"size": "1"}, {"size": "1"}, {"size": "96"}, {"size": "40"}]}}}, "dtype": {"type": "DT_FLOAT"}}}, {"name": "StatefulPartitionedCall/sequential_1/keras_layer_1/StatefulPartitionedCall/StatefulPartitionedCall/StatefulPartitionedCall/predict/MobilenetV3/expanded_conv_10/project/Conv2D_bn_offset", "op": "Const", "attr": {"dtype": {"type": "DT_FLOAT"}, "value": {"tensor": {"dtype": "DT_FLOAT", "tensorShape": {"dim": [{"size": "72"}]}}}}}, {"name": "StatefulPartitionedCall/sequential_1/keras_layer_1/StatefulPartitionedCall/StatefulPartitionedCall/StatefulPartitionedCall/predict/MobilenetV3/expanded_conv_6/project/Conv2D_bn_offset", "op": "Const", "attr": {"value": {"tensor": {"dtype": "DT_FLOAT", "tensorShape": {"dim": [{"size": "40"}]}}}, "dtype": {"type": "DT_FLOAT"}}}, {"name": "StatefulPartitionedCall/sequential_1/keras_layer_1/StatefulPartitionedCall/StatefulPartitionedCall/StatefulPartitionedCall/predict/MobilenetV3/expanded_conv_7/expand/Conv2D_weights", "op": "Const", "attr": {"dtype": {"type": "DT_FLOAT"}, "value": {"tensor": {"dtype": "DT_FLOAT", "tensorShape": {"dim": [{"size": "1"}, {"size": "1"}, {"size": "40"}, {"size": "120"}]}}}}}, {"name": "StatefulPartitionedCall/sequential_1/keras_layer_1/StatefulPartitionedCall/StatefulPartitionedCall/StatefulPartitionedCall/predict/MobilenetV3/expanded_conv_7/expand/Conv2D_bn_offset", "op": "Const", "attr": {"value": {"tensor": {"dtype": "DT_FLOAT", "tensorShape": {"dim": [{"size": "120"}]}}}, "dtype": {"type": "DT_FLOAT"}}}, {"name": "StatefulPartitionedCall/sequential_1/keras_layer_1/StatefulPartitionedCall/StatefulPartitionedCall/StatefulPartitionedCall/predict/MobilenetV3/expanded_conv_7/depthwise/depthwise_weights", "op": "Const", "attr": {"value": {"tensor": {"dtype": "DT_FLOAT", "tensorShape": {"dim": [{"size": "5"}, {"size": "5"}, {"size": "120"}, {"size": "1"}]}}}, "dtype": {"type": "DT_FLOAT"}}}, {"name": "StatefulPartitionedCall/sequential_1/keras_layer_1/StatefulPartitionedCall/StatefulPartitionedCall/StatefulPartitionedCall/predict/MobilenetV3/expanded_conv_7/depthwise/depthwise_bn_offset", "op": "Const", "attr": {"dtype": {"type": "DT_FLOAT"}, "value": {"tensor": {"dtype": "DT_FLOAT", "tensorShape": {"dim": [{"size": "120"}]}}}}}, {"name": "StatefulPartitionedCall/sequential_1/keras_layer_1/StatefulPartitionedCall/StatefulPartitionedCall/StatefulPartitionedCall/predict/MobilenetV3/Conv_1/Conv2D_weights", "op": "Const", "attr": {"value": {"tensor": {"dtype": "DT_FLOAT", "tensorShape": {"dim": [{"size": "1"}, {"size": "1"}, {"size": "72"}, {"size": "432"}]}}}, "dtype": {"type": "DT_FLOAT"}}}, {"name": "StatefulPartitionedCall/sequential_1/keras_layer_1/StatefulPartitionedCall/StatefulPartitionedCall/StatefulPartitionedCall/predict/MobilenetV3/expanded_conv_7/project/Conv2D_weights", "op": "Const", "attr": {"value": {"tensor": {"dtype": "DT_FLOAT", "tensorShape": {"dim": [{"size": "1"}, {"size": "1"}, {"size": "120"}, {"size": "40"}]}}}, "dtype": {"type": "DT_FLOAT"}}}, {"name": "StatefulPartitionedCall/sequential_1/keras_layer_1/StatefulPartitionedCall/StatefulPartitionedCall/StatefulPartitionedCall/predict/MobilenetV3/Conv_1/Conv2D_bn_offset", "op": "Const", "attr": {"dtype": {"type": "DT_FLOAT"}, "value": {"tensor": {"dtype": "DT_FLOAT", "tensorShape": {"dim": [{"size": "432"}]}}}}}, {"name": "StatefulPartitionedCall/sequential_1/keras_layer_1/StatefulPartitionedCall/StatefulPartitionedCall/StatefulPartitionedCall/predict/MobilenetV3/expanded_conv_7/project/Conv2D_bn_offset", "op": "Const", "attr": {"dtype": {"type": "DT_FLOAT"}, "value": {"tensor": {"dtype": "DT_FLOAT", "tensorShape": {"dim": [{"size": "40"}]}}}}}, {"name": "StatefulPartitionedCall/sequential_1/keras_layer_1/StatefulPartitionedCall/StatefulPartitionedCall/StatefulPartitionedCall/predict/MobilenetV3/expanded_conv_8/expand/Conv2D_weights", "op": "Const", "attr": {"dtype": {"type": "DT_FLOAT"}, "value": {"tensor": {"dtype": "DT_FLOAT", "tensorShape": {"dim": [{"size": "1"}, {"size": "1"}, {"size": "40"}, {"size": "240"}]}}}}}, {"name": "StatefulPartitionedCall/sequential_1/keras_layer_1/StatefulPartitionedCall/StatefulPartitionedCall/StatefulPartitionedCall/predict/MobilenetV3/expanded_conv_8/expand/Conv2D_bn_offset", "op": "Const", "attr": {"value": {"tensor": {"dtype": "DT_FLOAT", "tensorShape": {"dim": [{"size": "240"}]}}}, "dtype": {"type": "DT_FLOAT"}}}, {"name": "StatefulPartitionedCall/sequential_1/keras_layer_1/StatefulPartitionedCall/StatefulPartitionedCall/StatefulPartitionedCall/predict/MobilenetV3/expanded_conv_8/depthwise/depthwise_weights", "op": "Const", "attr": {"value": {"tensor": {"dtype": "DT_FLOAT", "tensorShape": {"dim": [{"size": "5"}, {"size": "5"}, {"size": "240"}, {"size": "1"}]}}}, "dtype": {"type": "DT_FLOAT"}}}, {"name": "StatefulPartitionedCall/sequential_1/keras_layer_1/StatefulPartitionedCall/StatefulPartitionedCall/StatefulPartitionedCall/predict/MobilenetV3/expanded_conv_8/depthwise/depthwise_bn_offset", "op": "Const", "attr": {"dtype": {"type": "DT_FLOAT"}, "value": {"tensor": {"dtype": "DT_FLOAT", "tensorShape": {"dim": [{"size": "240"}]}}}}}, {"name": "StatefulPartitionedCall/sequential_1/keras_layer_1/StatefulPartitionedCall/StatefulPartitionedCall/StatefulPartitionedCall/predict/MobilenetV3/expanded_conv_8/project/Conv2D_weights", "op": "Const", "attr": {"dtype": {"type": "DT_FLOAT"}, "value": {"tensor": {"dtype": "DT_FLOAT", "tensorShape": {"dim": [{"size": "1"}, {"size": "1"}, {"size": "240"}, {"size": "72"}]}}}}}, {"name": "StatefulPartitionedCall/sequential_1/keras_layer_1/StatefulPartitionedCall/StatefulPartitionedCall/StatefulPartitionedCall/predict/MobilenetV3/expanded_conv_8/project/Conv2D_bn_offset", "op": "Const", "attr": {"dtype": {"type": "DT_FLOAT"}, "value": {"tensor": {"dtype": "DT_FLOAT", "tensorShape": {"dim": [{"size": "72"}]}}}}}, {"name": "StatefulPartitionedCall/sequential_1/keras_layer_1/StatefulPartitionedCall/StatefulPartitionedCall/StatefulPartitionedCall/predict/MobilenetV3/expanded_conv_9/expand/Conv2D_weights", "op": "Const", "attr": {"value": {"tensor": {"dtype": "DT_FLOAT", "tensorShape": {"dim": [{"size": "1"}, {"size": "1"}, {"size": "72"}, {"size": "432"}]}}}, "dtype": {"type": "DT_FLOAT"}}}, {"name": "StatefulPartitionedCall/sequential_1/keras_layer_1/StatefulPartitionedCall/StatefulPartitionedCall/StatefulPartitionedCall/predict/MobilenetV3/expanded_conv_9/expand/Conv2D_bn_offset", "op": "Const", "attr": {"value": {"tensor": {"dtype": "DT_FLOAT", "tensorShape": {"dim": [{"size": "432"}]}}}, "dtype": {"type": "DT_FLOAT"}}}, {"name": "StatefulPartitionedCall/sequential_1/keras_layer_1/StatefulPartitionedCall/StatefulPartitionedCall/StatefulPartitionedCall/predict/MobilenetV3/expanded_conv_9/depthwise/depthwise_weights", "op": "Const", "attr": {"dtype": {"type": "DT_FLOAT"}, "value": {"tensor": {"dtype": "DT_FLOAT", "tensorShape": {"dim": [{"size": "5"}, {"size": "5"}, {"size": "432"}, {"size": "1"}]}}}}}, {"name": "StatefulPartitionedCall/sequential_1/keras_layer_1/StatefulPartitionedCall/StatefulPartitionedCall/StatefulPartitionedCall/predict/MobilenetV3/expanded_conv_9/depthwise/depthwise_bn_offset", "op": "Const", "attr": {"value": {"tensor": {"dtype": "DT_FLOAT", "tensorShape": {"dim": [{"size": "432"}]}}}, "dtype": {"type": "DT_FLOAT"}}}, {"name": "StatefulPartitionedCall/sequential_1/keras_layer_1/StatefulPartitionedCall/StatefulPartitionedCall/StatefulPartitionedCall/predict/MobilenetV3/expanded_conv_9/project/Conv2D_weights", "op": "Const", "attr": {"dtype": {"type": "DT_FLOAT"}, "value": {"tensor": {"dtype": "DT_FLOAT", "tensorShape": {"dim": [{"size": "1"}, {"size": "1"}, {"size": "432"}, {"size": "72"}]}}}}}, {"name": "StatefulPartitionedCall/sequential_1/keras_layer_1/StatefulPartitionedCall/StatefulPartitionedCall/StatefulPartitionedCall/predict/MobilenetV3/expanded_conv_9/project/Conv2D_bn_offset", "op": "Const", "attr": {"value": {"tensor": {"dtype": "DT_FLOAT", "tensorShape": {"dim": [{"size": "72"}]}}}, "dtype": {"type": "DT_FLOAT"}}}, {"name": "StatefulPartitionedCall/sequential_1/keras_layer_1/StatefulPartitionedCall/StatefulPartitionedCall/StatefulPartitionedCall/predict/MobilenetV3/Conv_2/hard_swish/mul_1/y", "op": "Const", "input": ["^keras_layer_1_input"], "attr": {"value": {"tensor": {"dtype": "DT_FLOAT", "tensorShape": {}}}, "dtype": {"type": "DT_FLOAT"}}}, {"name": "StatefulPartitionedCall/sequential_1/keras_layer_1/StatefulPartitionedCall/StatefulPartitionedCall/StatefulPartitionedCall/predict/MobilenetV3/Conv_1/hard_swish/mul_1/y", "op": "Const", "input": ["^keras_layer_1_input"], "attr": {"dtype": {"type": "DT_FLOAT"}, "value": {"tensor": {"dtype": "DT_FLOAT", "tensorShape": {}}}}}, {"name": "StatefulPartitionedCall/sequential_1/keras_layer_1/StatefulPartitionedCall/StatefulPartitionedCall/StatefulPartitionedCall/predict/MobilenetV3/expanded_conv_10/squeeze_excite/Conv_1/mul/y", "op": "Const", "input": ["^keras_layer_1_input"], "attr": {"value": {"tensor": {"dtype": "DT_FLOAT", "tensorShape": {}}}, "dtype": {"type": "DT_FLOAT"}}}, {"name": "StatefulPartitionedCall/sequential_1/keras_layer_1/StatefulPartitionedCall/StatefulPartitionedCall/StatefulPartitionedCall/predict/MobilenetV3/expanded_conv_10/squeeze_excite/Mean/reduction_indices", "op": "Const", "input": ["^keras_layer_1_input"], "attr": {"dtype": {"type": "DT_INT32"}, "value": {"tensor": {"dtype": "DT_INT32", "tensorShape": {"dim": [{"size": "2"}]}}}}}, {"name": "Func/StatefulPartitionedCall/sequential_1/keras_layer_1/StatefulPartitionedCall/StatefulPartitionedCall/StatefulPartitionedCall/input/_833", "op": "Const", "input": ["^keras_layer_1_input"], "attr": {"dtype": {"type": "DT_FLOAT"}, "value": {"tensor": {"dtype": "DT_FLOAT", "tensorShape": {"dim": [{"size": "1"}, {"size": "1"}, {"size": "432"}, {"size": "112"}]}}}}}, {"name": "Func/StatefulPartitionedCall/sequential_1/keras_layer_1/StatefulPartitionedCall/StatefulPartitionedCall/StatefulPartitionedCall/input/_834", "op": "Const", "input": ["^keras_layer_1_input"], "attr": {"value": {"tensor": {"dtype": "DT_FLOAT", "tensorShape": {"dim": [{"size": "112"}]}}}, "dtype": {"type": "DT_FLOAT"}}}, {"name": "Func/StatefulPartitionedCall/sequential_1/keras_layer_1/StatefulPartitionedCall/StatefulPartitionedCall/StatefulPartitionedCall/input/_835", "op": "Const", "input": ["^keras_layer_1_input"], "attr": {"dtype": {"type": "DT_FLOAT"}, "value": {"tensor": {"dtype": "DT_FLOAT", "tensorShape": {"dim": [{"size": "1"}, {"size": "1"}, {"size": "112"}, {"size": "432"}]}}}}}, {"name": "Func/StatefulPartitionedCall/sequential_1/keras_layer_1/StatefulPartitionedCall/StatefulPartitionedCall/StatefulPartitionedCall/input/_836", "op": "Const", "input": ["^keras_layer_1_input"], "attr": {"dtype": {"type": "DT_FLOAT"}, "value": {"tensor": {"dtype": "DT_FLOAT", "tensorShape": {"dim": [{"size": "432"}]}}}}}, {"name": "StatefulPartitionedCall/sequential_1/keras_layer_1/StatefulPartitionedCall/StatefulPartitionedCall/StatefulPartitionedCall/predict/MobilenetV3/expanded_conv_10/squeeze_excite/Conv_1/add/y", "op": "Const", "input": ["^keras_layer_1_input"], "attr": {"value": {"tensor": {"dtype": "DT_FLOAT", "tensorShape": {}}}, "dtype": {"type": "DT_FLOAT"}}}, {"name": "StatefulPartitionedCall/sequential_1/keras_layer_1/StatefulPartitionedCall/StatefulPartitionedCall/StatefulPartitionedCall/predict/MobilenetV3/expanded_conv_10/depthwise/hard_swish/mul_1/y", "op": "Const", "input": ["^keras_layer_1_input"], "attr": {"value": {"tensor": {"dtype": "DT_FLOAT", "tensorShape": {}}}, "dtype": {"type": "DT_FLOAT"}}}, {"name": "StatefulPartitionedCall/sequential_1/keras_layer_1/StatefulPartitionedCall/StatefulPartitionedCall/StatefulPartitionedCall/predict/MobilenetV3/expanded_conv_10/expand/hard_swish/mul_1/y", "op": "Const", "input": ["^keras_layer_1_input"], "attr": {"dtype": {"type": "DT_FLOAT"}, "value": {"tensor": {"dtype": "DT_FLOAT", "tensorShape": {}}}}}, {"name": "StatefulPartitionedCall/sequential_1/keras_layer_1/StatefulPartitionedCall/StatefulPartitionedCall/StatefulPartitionedCall/predict/MobilenetV3/expanded_conv_10/expand/hard_swish/add/y", "op": "Const", "input": ["^keras_layer_1_input"], "attr": {"dtype": {"type": "DT_FLOAT"}, "value": {"tensor": {"dtype": "DT_FLOAT", "tensorShape": {}}}}}, {"name": "StatefulPartitionedCall/sequential_1/keras_layer_1/StatefulPartitionedCall/StatefulPartitionedCall/StatefulPartitionedCall/predict/MobilenetV3/expanded_conv_10/depthwise/hard_swish/add/y", "op": "Const", "input": ["^keras_layer_1_input"], "attr": {"value": {"tensor": {"dtype": "DT_FLOAT", "tensorShape": {}}}, "dtype": {"type": "DT_FLOAT"}}}, {"name": "StatefulPartitionedCall/sequential_1/keras_layer_1/StatefulPartitionedCall/StatefulPartitionedCall/StatefulPartitionedCall/predict/MobilenetV3/expanded_conv_9/squeeze_excite/Conv_1/mul/y", "op": "Const", "input": ["^keras_layer_1_input"], "attr": {"value": {"tensor": {"dtype": "DT_FLOAT", "tensorShape": {}}}, "dtype": {"type": "DT_FLOAT"}}}, {"name": "StatefulPartitionedCall/sequential_1/keras_layer_1/StatefulPartitionedCall/StatefulPartitionedCall/StatefulPartitionedCall/predict/MobilenetV3/expanded_conv_9/squeeze_excite/Mean/reduction_indices", "op": "Const", "input": ["^keras_layer_1_input"], "attr": {"value": {"tensor": {"dtype": "DT_INT32", "tensorShape": {"dim": [{"size": "2"}]}}}, "dtype": {"type": "DT_INT32"}}}, {"name": "Func/StatefulPartitionedCall/sequential_1/keras_layer_1/StatefulPartitionedCall/StatefulPartitionedCall/StatefulPartitionedCall/input/_814", "op": "Const", "input": ["^keras_layer_1_input"], "attr": {"dtype": {"type": "DT_FLOAT"}, "value": {"tensor": {"dtype": "DT_FLOAT", "tensorShape": {"dim": [{"size": "1"}, {"size": "1"}, {"size": "432"}, {"size": "112"}]}}}}}, {"name": "Func/StatefulPartitionedCall/sequential_1/keras_layer_1/StatefulPartitionedCall/StatefulPartitionedCall/StatefulPartitionedCall/input/_815", "op": "Const", "input": ["^keras_layer_1_input"], "attr": {"dtype": {"type": "DT_FLOAT"}, "value": {"tensor": {"dtype": "DT_FLOAT", "tensorShape": {"dim": [{"size": "112"}]}}}}}, {"name": "Func/StatefulPartitionedCall/sequential_1/keras_layer_1/StatefulPartitionedCall/StatefulPartitionedCall/StatefulPartitionedCall/input/_816", "op": "Const", "input": ["^keras_layer_1_input"], "attr": {"dtype": {"type": "DT_FLOAT"}, "value": {"tensor": {"dtype": "DT_FLOAT", "tensorShape": {"dim": [{"size": "1"}, {"size": "1"}, {"size": "112"}, {"size": "432"}]}}}}}, {"name": "Func/StatefulPartitionedCall/sequential_1/keras_layer_1/StatefulPartitionedCall/StatefulPartitionedCall/StatefulPartitionedCall/input/_817", "op": "Const", "input": ["^keras_layer_1_input"], "attr": {"value": {"tensor": {"dtype": "DT_FLOAT", "tensorShape": {"dim": [{"size": "432"}]}}}, "dtype": {"type": "DT_FLOAT"}}}, {"name": "StatefulPartitionedCall/sequential_1/keras_layer_1/StatefulPartitionedCall/StatefulPartitionedCall/StatefulPartitionedCall/predict/MobilenetV3/expanded_conv_9/squeeze_excite/Conv_1/add/y", "op": "Const", "input": ["^keras_layer_1_input"], "attr": {"value": {"tensor": {"dtype": "DT_FLOAT", "tensorShape": {}}}, "dtype": {"type": "DT_FLOAT"}}}, {"name": "StatefulPartitionedCall/sequential_1/keras_layer_1/StatefulPartitionedCall/StatefulPartitionedCall/StatefulPartitionedCall/predict/MobilenetV3/expanded_conv_9/depthwise/hard_swish/mul_1/y", "op": "Const", "input": ["^keras_layer_1_input"], "attr": {"value": {"tensor": {"dtype": "DT_FLOAT", "tensorShape": {}}}, "dtype": {"type": "DT_FLOAT"}}}, {"name": "StatefulPartitionedCall/sequential_1/keras_layer_1/StatefulPartitionedCall/StatefulPartitionedCall/StatefulPartitionedCall/predict/MobilenetV3/expanded_conv_9/expand/hard_swish/mul_1/y", "op": "Const", "input": ["^keras_layer_1_input"], "attr": {"dtype": {"type": "DT_FLOAT"}, "value": {"tensor": {"dtype": "DT_FLOAT", "tensorShape": {}}}}}, {"name": "StatefulPartitionedCall/sequential_1/keras_layer_1/StatefulPartitionedCall/StatefulPartitionedCall/StatefulPartitionedCall/predict/MobilenetV3/expanded_conv_9/expand/hard_swish/add/y", "op": "Const", "input": ["^keras_layer_1_input"], "attr": {"value": {"tensor": {"dtype": "DT_FLOAT", "tensorShape": {}}}, "dtype": {"type": "DT_FLOAT"}}}, {"name": "StatefulPartitionedCall/sequential_1/keras_layer_1/StatefulPartitionedCall/StatefulPartitionedCall/StatefulPartitionedCall/predict/MobilenetV3/expanded_conv_9/depthwise/hard_swish/add/y", "op": "Const", "input": ["^keras_layer_1_input"], "attr": {"value": {"tensor": {"dtype": "DT_FLOAT", "tensorShape": {}}}, "dtype": {"type": "DT_FLOAT"}}}, {"name": "StatefulPartitionedCall/sequential_1/keras_layer_1/StatefulPartitionedCall/StatefulPartitionedCall/StatefulPartitionedCall/predict/MobilenetV3/expanded_conv_8/squeeze_excite/Conv_1/mul/y", "op": "Const", "input": ["^keras_layer_1_input"], "attr": {"dtype": {"type": "DT_FLOAT"}, "value": {"tensor": {"dtype": "DT_FLOAT", "tensorShape": {}}}}}, {"name": "StatefulPartitionedCall/sequential_1/keras_layer_1/StatefulPartitionedCall/StatefulPartitionedCall/StatefulPartitionedCall/predict/MobilenetV3/expanded_conv_8/squeeze_excite/Mean/reduction_indices", "op": "Const", "input": ["^keras_layer_1_input"], "attr": {"dtype": {"type": "DT_INT32"}, "value": {"tensor": {"dtype": "DT_INT32", "tensorShape": {"dim": [{"size": "2"}]}}}}}, {"name": "Func/StatefulPartitionedCall/sequential_1/keras_layer_1/StatefulPartitionedCall/StatefulPartitionedCall/StatefulPartitionedCall/input/_795", "op": "Const", "input": ["^keras_layer_1_input"], "attr": {"dtype": {"type": "DT_FLOAT"}, "value": {"tensor": {"dtype": "DT_FLOAT", "tensorShape": {"dim": [{"size": "1"}, {"size": "1"}, {"size": "240"}, {"size": "64"}]}}}}}, {"name": "Func/StatefulPartitionedCall/sequential_1/keras_layer_1/StatefulPartitionedCall/StatefulPartitionedCall/StatefulPartitionedCall/input/_796", "op": "Const", "input": ["^keras_layer_1_input"], "attr": {"dtype": {"type": "DT_FLOAT"}, "value": {"tensor": {"dtype": "DT_FLOAT", "tensorShape": {"dim": [{"size": "64"}]}}}}}, {"name": "Func/StatefulPartitionedCall/sequential_1/keras_layer_1/StatefulPartitionedCall/StatefulPartitionedCall/StatefulPartitionedCall/input/_797", "op": "Const", "input": ["^keras_layer_1_input"], "attr": {"value": {"tensor": {"dtype": "DT_FLOAT", "tensorShape": {"dim": [{"size": "1"}, {"size": "1"}, {"size": "64"}, {"size": "240"}]}}}, "dtype": {"type": "DT_FLOAT"}}}, {"name": "Func/StatefulPartitionedCall/sequential_1/keras_layer_1/StatefulPartitionedCall/StatefulPartitionedCall/StatefulPartitionedCall/input/_798", "op": "Const", "input": ["^keras_layer_1_input"], "attr": {"value": {"tensor": {"dtype": "DT_FLOAT", "tensorShape": {"dim": [{"size": "240"}]}}}, "dtype": {"type": "DT_FLOAT"}}}, {"name": "StatefulPartitionedCall/sequential_1/keras_layer_1/StatefulPartitionedCall/StatefulPartitionedCall/StatefulPartitionedCall/predict/MobilenetV3/expanded_conv_8/squeeze_excite/Conv_1/add/y", "op": "Const", "input": ["^keras_layer_1_input"], "attr": {"dtype": {"type": "DT_FLOAT"}, "value": {"tensor": {"dtype": "DT_FLOAT", "tensorShape": {}}}}}, {"name": "StatefulPartitionedCall/sequential_1/keras_layer_1/StatefulPartitionedCall/StatefulPartitionedCall/StatefulPartitionedCall/predict/MobilenetV3/expanded_conv_8/depthwise/hard_swish/mul_1/y", "op": "Const", "input": ["^keras_layer_1_input"], "attr": {"dtype": {"type": "DT_FLOAT"}, "value": {"tensor": {"dtype": "DT_FLOAT", "tensorShape": {}}}}}, {"name": "StatefulPartitionedCall/sequential_1/keras_layer_1/StatefulPartitionedCall/StatefulPartitionedCall/StatefulPartitionedCall/predict/MobilenetV3/expanded_conv_8/expand/hard_swish/mul_1/y", "op": "Const", "input": ["^keras_layer_1_input"], "attr": {"value": {"tensor": {"dtype": "DT_FLOAT", "tensorShape": {}}}, "dtype": {"type": "DT_FLOAT"}}}, {"name": "StatefulPartitionedCall/sequential_1/keras_layer_1/StatefulPartitionedCall/StatefulPartitionedCall/StatefulPartitionedCall/predict/MobilenetV3/expanded_conv_7/squeeze_excite/Conv_1/mul/y", "op": "Const", "input": ["^keras_layer_1_input"], "attr": {"dtype": {"type": "DT_FLOAT"}, "value": {"tensor": {"dtype": "DT_FLOAT", "tensorShape": {}}}}}, {"name": "StatefulPartitionedCall/sequential_1/keras_layer_1/StatefulPartitionedCall/StatefulPartitionedCall/StatefulPartitionedCall/predict/MobilenetV3/expanded_conv_7/squeeze_excite/Mean/reduction_indices", "op": "Const", "input": ["^keras_layer_1_input"], "attr": {"dtype": {"type": "DT_INT32"}, "value": {"tensor": {"dtype": "DT_INT32", "tensorShape": {"dim": [{"size": "2"}]}}}}}, {"name": "Func/StatefulPartitionedCall/sequential_1/keras_layer_1/StatefulPartitionedCall/StatefulPartitionedCall/StatefulPartitionedCall/input/_776", "op": "Const", "input": ["^keras_layer_1_input"], "attr": {"value": {"tensor": {"dtype": "DT_FLOAT", "tensorShape": {"dim": [{"size": "1"}, {"size": "1"}, {"size": "120"}, {"size": "32"}]}}}, "dtype": {"type": "DT_FLOAT"}}}, {"name": "Func/StatefulPartitionedCall/sequential_1/keras_layer_1/StatefulPartitionedCall/StatefulPartitionedCall/StatefulPartitionedCall/input/_777", "op": "Const", "input": ["^keras_layer_1_input"], "attr": {"value": {"tensor": {"dtype": "DT_FLOAT", "tensorShape": {"dim": [{"size": "32"}]}}}, "dtype": {"type": "DT_FLOAT"}}}, {"name": "Func/StatefulPartitionedCall/sequential_1/keras_layer_1/StatefulPartitionedCall/StatefulPartitionedCall/StatefulPartitionedCall/input/_778", "op": "Const", "input": ["^keras_layer_1_input"], "attr": {"dtype": {"type": "DT_FLOAT"}, "value": {"tensor": {"dtype": "DT_FLOAT", "tensorShape": {"dim": [{"size": "1"}, {"size": "1"}, {"size": "32"}, {"size": "120"}]}}}}}, {"name": "Func/StatefulPartitionedCall/sequential_1/keras_layer_1/StatefulPartitionedCall/StatefulPartitionedCall/StatefulPartitionedCall/input/_779", "op": "Const", "input": ["^keras_layer_1_input"], "attr": {"dtype": {"type": "DT_FLOAT"}, "value": {"tensor": {"dtype": "DT_FLOAT", "tensorShape": {"dim": [{"size": "120"}]}}}}}, {"name": "StatefulPartitionedCall/sequential_1/keras_layer_1/StatefulPartitionedCall/StatefulPartitionedCall/StatefulPartitionedCall/predict/MobilenetV3/expanded_conv_7/squeeze_excite/Conv_1/add/y", "op": "Const", "input": ["^keras_layer_1_input"], "attr": {"value": {"tensor": {"dtype": "DT_FLOAT", "tensorShape": {}}}, "dtype": {"type": "DT_FLOAT"}}}, {"name": "StatefulPartitionedCall/sequential_1/keras_layer_1/StatefulPartitionedCall/StatefulPartitionedCall/StatefulPartitionedCall/predict/MobilenetV3/expanded_conv_7/depthwise/hard_swish/mul_1/y", "op": "Const", "input": ["^keras_layer_1_input"], "attr": {"dtype": {"type": "DT_FLOAT"}, "value": {"tensor": {"dtype": "DT_FLOAT", "tensorShape": {}}}}}, {"name": "StatefulPartitionedCall/sequential_1/keras_layer_1/StatefulPartitionedCall/StatefulPartitionedCall/StatefulPartitionedCall/predict/MobilenetV3/expanded_conv_7/expand/hard_swish/mul_1/y", "op": "Const", "input": ["^keras_layer_1_input"], "attr": {"dtype": {"type": "DT_FLOAT"}, "value": {"tensor": {"dtype": "DT_FLOAT", "tensorShape": {}}}}}, {"name": "StatefulPartitionedCall/sequential_1/keras_layer_1/StatefulPartitionedCall/StatefulPartitionedCall/StatefulPartitionedCall/predict/MobilenetV3/expanded_conv_7/expand/hard_swish/add/y", "op": "Const", "input": ["^keras_layer_1_input"], "attr": {"dtype": {"type": "DT_FLOAT"}, "value": {"tensor": {"dtype": "DT_FLOAT", "tensorShape": {}}}}}, {"name": "StatefulPartitionedCall/sequential_1/keras_layer_1/StatefulPartitionedCall/StatefulPartitionedCall/StatefulPartitionedCall/predict/MobilenetV3/expanded_conv_7/depthwise/hard_swish/add/y", "op": "Const", "input": ["^keras_layer_1_input"], "attr": {"value": {"tensor": {"dtype": "DT_FLOAT", "tensorShape": {}}}, "dtype": {"type": "DT_FLOAT"}}}, {"name": "StatefulPartitionedCall/sequential_1/keras_layer_1/StatefulPartitionedCall/StatefulPartitionedCall/StatefulPartitionedCall/predict/MobilenetV3/expanded_conv_6/squeeze_excite/Conv_1/mul/y", "op": "Const", "input": ["^keras_layer_1_input"], "attr": {"dtype": {"type": "DT_FLOAT"}, "value": {"tensor": {"dtype": "DT_FLOAT", "tensorShape": {}}}}}, {"name": "StatefulPartitionedCall/sequential_1/keras_layer_1/StatefulPartitionedCall/StatefulPartitionedCall/StatefulPartitionedCall/predict/MobilenetV3/expanded_conv_6/squeeze_excite/Mean/reduction_indices", "op": "Const", "input": ["^keras_layer_1_input"], "attr": {"value": {"tensor": {"dtype": "DT_INT32", "tensorShape": {"dim": [{"size": "2"}]}}}, "dtype": {"type": "DT_INT32"}}}, {"name": "Func/StatefulPartitionedCall/sequential_1/keras_layer_1/StatefulPartitionedCall/StatefulPartitionedCall/StatefulPartitionedCall/input/_757", "op": "Const", "input": ["^keras_layer_1_input"], "attr": {"value": {"tensor": {"dtype": "DT_FLOAT", "tensorShape": {"dim": [{"size": "1"}, {"size": "1"}, {"size": "96"}, {"size": "24"}]}}}, "dtype": {"type": "DT_FLOAT"}}}, {"name": "Func/StatefulPartitionedCall/sequential_1/keras_layer_1/StatefulPartitionedCall/StatefulPartitionedCall/StatefulPartitionedCall/input/_758", "op": "Const", "input": ["^keras_layer_1_input"], "attr": {"dtype": {"type": "DT_FLOAT"}, "value": {"tensor": {"dtype": "DT_FLOAT", "tensorShape": {"dim": [{"size": "24"}]}}}}}, {"name": "Func/StatefulPartitionedCall/sequential_1/keras_layer_1/StatefulPartitionedCall/StatefulPartitionedCall/StatefulPartitionedCall/input/_759", "op": "Const", "input": ["^keras_layer_1_input"], "attr": {"value": {"tensor": {"dtype": "DT_FLOAT", "tensorShape": {"dim": [{"size": "1"}, {"size": "1"}, {"size": "24"}, {"size": "96"}]}}}, "dtype": {"type": "DT_FLOAT"}}}, {"name": "Func/StatefulPartitionedCall/sequential_1/keras_layer_1/StatefulPartitionedCall/StatefulPartitionedCall/StatefulPartitionedCall/input/_760", "op": "Const", "input": ["^keras_layer_1_input"], "attr": {"value": {"tensor": {"dtype": "DT_FLOAT", "tensorShape": {"dim": [{"size": "96"}]}}}, "dtype": {"type": "DT_FLOAT"}}}, {"name": "StatefulPartitionedCall/sequential_1/keras_layer_1/StatefulPartitionedCall/StatefulPartitionedCall/StatefulPartitionedCall/predict/MobilenetV3/expanded_conv_6/squeeze_excite/Conv_1/add/y", "op": "Const", "input": ["^keras_layer_1_input"], "attr": {"dtype": {"type": "DT_FLOAT"}, "value": {"tensor": {"dtype": "DT_FLOAT", "tensorShape": {}}}}}, {"name": "StatefulPartitionedCall/sequential_1/keras_layer_1/StatefulPartitionedCall/StatefulPartitionedCall/StatefulPartitionedCall/predict/MobilenetV3/expanded_conv_6/depthwise/hard_swish/mul_1/y", "op": "Const", "input": ["^keras_layer_1_input"], "attr": {"value": {"tensor": {"dtype": "DT_FLOAT", "tensorShape": {}}}, "dtype": {"type": "DT_FLOAT"}}}, {"name": "StatefulPartitionedCall/sequential_1/keras_layer_1/StatefulPartitionedCall/StatefulPartitionedCall/StatefulPartitionedCall/predict/MobilenetV3/expanded_conv_6/expand/hard_swish/mul_1/y", "op": "Const", "input": ["^keras_layer_1_input"], "attr": {"dtype": {"type": "DT_FLOAT"}, "value": {"tensor": {"dtype": "DT_FLOAT", "tensorShape": {}}}}}, {"name": "StatefulPartitionedCall/sequential_1/keras_layer_1/StatefulPartitionedCall/StatefulPartitionedCall/StatefulPartitionedCall/predict/MobilenetV3/expanded_conv_5/squeeze_excite/Conv_1/mul/y", "op": "Const", "input": ["^keras_layer_1_input"], "attr": {"dtype": {"type": "DT_FLOAT"}, "value": {"tensor": {"dtype": "DT_FLOAT", "tensorShape": {}}}}}, {"name": "StatefulPartitionedCall/sequential_1/keras_layer_1/StatefulPartitionedCall/StatefulPartitionedCall/StatefulPartitionedCall/predict/MobilenetV3/expanded_conv_5/squeeze_excite/Mean/reduction_indices", "op": "Const", "input": ["^keras_layer_1_input"], "attr": {"dtype": {"type": "DT_INT32"}, "value": {"tensor": {"dtype": "DT_INT32", "tensorShape": {"dim": [{"size": "2"}]}}}}}, {"name": "Func/StatefulPartitionedCall/sequential_1/keras_layer_1/StatefulPartitionedCall/StatefulPartitionedCall/StatefulPartitionedCall/input/_738", "op": "Const", "input": ["^keras_layer_1_input"], "attr": {"value": {"tensor": {"dtype": "DT_FLOAT", "tensorShape": {"dim": [{"size": "1"}, {"size": "1"}, {"size": "192"}, {"size": "48"}]}}}, "dtype": {"type": "DT_FLOAT"}}}, {"name": "Func/StatefulPartitionedCall/sequential_1/keras_layer_1/StatefulPartitionedCall/StatefulPartitionedCall/StatefulPartitionedCall/input/_739", "op": "Const", "input": ["^keras_layer_1_input"], "attr": {"dtype": {"type": "DT_FLOAT"}, "value": {"tensor": {"dtype": "DT_FLOAT", "tensorShape": {"dim": [{"size": "48"}]}}}}}, {"name": "Func/StatefulPartitionedCall/sequential_1/keras_layer_1/StatefulPartitionedCall/StatefulPartitionedCall/StatefulPartitionedCall/input/_740", "op": "Const", "input": ["^keras_layer_1_input"], "attr": {"value": {"tensor": {"dtype": "DT_FLOAT", "tensorShape": {"dim": [{"size": "1"}, {"size": "1"}, {"size": "48"}, {"size": "192"}]}}}, "dtype": {"type": "DT_FLOAT"}}}, {"name": "Func/StatefulPartitionedCall/sequential_1/keras_layer_1/StatefulPartitionedCall/StatefulPartitionedCall/StatefulPartitionedCall/input/_741", "op": "Const", "input": ["^keras_layer_1_input"], "attr": {"value": {"tensor": {"dtype": "DT_FLOAT", "tensorShape": {"dim": [{"size": "192"}]}}}, "dtype": {"type": "DT_FLOAT"}}}, {"name": "StatefulPartitionedCall/sequential_1/keras_layer_1/StatefulPartitionedCall/StatefulPartitionedCall/StatefulPartitionedCall/predict/MobilenetV3/expanded_conv_5/squeeze_excite/Conv_1/add/y", "op": "Const", "input": ["^keras_layer_1_input"], "attr": {"dtype": {"type": "DT_FLOAT"}, "value": {"tensor": {"dtype": "DT_FLOAT", "tensorShape": {}}}}}, {"name": "StatefulPartitionedCall/sequential_1/keras_layer_1/StatefulPartitionedCall/StatefulPartitionedCall/StatefulPartitionedCall/predict/MobilenetV3/expanded_conv_5/depthwise/hard_swish/mul_1/y", "op": "Const", "input": ["^keras_layer_1_input"], "attr": {"dtype": {"type": "DT_FLOAT"}, "value": {"tensor": {"dtype": "DT_FLOAT", "tensorShape": {}}}}}, {"name": "StatefulPartitionedCall/sequential_1/keras_layer_1/StatefulPartitionedCall/StatefulPartitionedCall/StatefulPartitionedCall/predict/MobilenetV3/expanded_conv_5/expand/hard_swish/mul_1/y", "op": "Const", "input": ["^keras_layer_1_input"], "attr": {"value": {"tensor": {"dtype": "DT_FLOAT", "tensorShape": {}}}, "dtype": {"type": "DT_FLOAT"}}}, {"name": "StatefulPartitionedCall/sequential_1/keras_layer_1/StatefulPartitionedCall/StatefulPartitionedCall/StatefulPartitionedCall/predict/MobilenetV3/expanded_conv_5/expand/hard_swish/add/y", "op": "Const", "input": ["^keras_layer_1_input"], "attr": {"dtype": {"type": "DT_FLOAT"}, "value": {"tensor": {"dtype": "DT_FLOAT", "tensorShape": {}}}}}, {"name": "StatefulPartitionedCall/sequential_1/keras_layer_1/StatefulPartitionedCall/StatefulPartitionedCall/StatefulPartitionedCall/predict/MobilenetV3/expanded_conv_5/depthwise/hard_swish/add/y", "op": "Const", "input": ["^keras_layer_1_input"], "attr": {"value": {"tensor": {"dtype": "DT_FLOAT", "tensorShape": {}}}, "dtype": {"type": "DT_FLOAT"}}}, {"name": "StatefulPartitionedCall/sequential_1/keras_layer_1/StatefulPartitionedCall/StatefulPartitionedCall/StatefulPartitionedCall/predict/MobilenetV3/expanded_conv_4/squeeze_excite/Conv_1/mul/y", "op": "Const", "input": ["^keras_layer_1_input"], "attr": {"value": {"tensor": {"dtype": "DT_FLOAT", "tensorShape": {}}}, "dtype": {"type": "DT_FLOAT"}}}, {"name": "StatefulPartitionedCall/sequential_1/keras_layer_1/StatefulPartitionedCall/StatefulPartitionedCall/StatefulPartitionedCall/predict/MobilenetV3/expanded_conv_4/squeeze_excite/Mean/reduction_indices", "op": "Const", "input": ["^keras_layer_1_input"], "attr": {"dtype": {"type": "DT_INT32"}, "value": {"tensor": {"dtype": "DT_INT32", "tensorShape": {"dim": [{"size": "2"}]}}}}}, {"name": "Func/StatefulPartitionedCall/sequential_1/keras_layer_1/StatefulPartitionedCall/StatefulPartitionedCall/StatefulPartitionedCall/input/_719", "op": "Const", "input": ["^keras_layer_1_input"], "attr": {"value": {"tensor": {"dtype": "DT_FLOAT", "tensorShape": {"dim": [{"size": "1"}, {"size": "1"}, {"size": "192"}, {"size": "48"}]}}}, "dtype": {"type": "DT_FLOAT"}}}, {"name": "Func/StatefulPartitionedCall/sequential_1/keras_layer_1/StatefulPartitionedCall/StatefulPartitionedCall/StatefulPartitionedCall/input/_720", "op": "Const", "input": ["^keras_layer_1_input"], "attr": {"dtype": {"type": "DT_FLOAT"}, "value": {"tensor": {"dtype": "DT_FLOAT", "tensorShape": {"dim": [{"size": "48"}]}}}}}, {"name": "Func/StatefulPartitionedCall/sequential_1/keras_layer_1/StatefulPartitionedCall/StatefulPartitionedCall/StatefulPartitionedCall/input/_721", "op": "Const", "input": ["^keras_layer_1_input"], "attr": {"dtype": {"type": "DT_FLOAT"}, "value": {"tensor": {"dtype": "DT_FLOAT", "tensorShape": {"dim": [{"size": "1"}, {"size": "1"}, {"size": "48"}, {"size": "192"}]}}}}}, {"name": "Func/StatefulPartitionedCall/sequential_1/keras_layer_1/StatefulPartitionedCall/StatefulPartitionedCall/StatefulPartitionedCall/input/_722", "op": "Const", "input": ["^keras_layer_1_input"], "attr": {"dtype": {"type": "DT_FLOAT"}, "value": {"tensor": {"dtype": "DT_FLOAT", "tensorShape": {"dim": [{"size": "192"}]}}}}}, {"name": "StatefulPartitionedCall/sequential_1/keras_layer_1/StatefulPartitionedCall/StatefulPartitionedCall/StatefulPartitionedCall/predict/MobilenetV3/expanded_conv_4/squeeze_excite/Conv_1/add/y", "op": "Const", "input": ["^keras_layer_1_input"], "attr": {"value": {"tensor": {"dtype": "DT_FLOAT", "tensorShape": {}}}, "dtype": {"type": "DT_FLOAT"}}}, {"name": "StatefulPartitionedCall/sequential_1/keras_layer_1/StatefulPartitionedCall/StatefulPartitionedCall/StatefulPartitionedCall/predict/MobilenetV3/expanded_conv_4/depthwise/hard_swish/mul_1/y", "op": "Const", "input": ["^keras_layer_1_input"], "attr": {"dtype": {"type": "DT_FLOAT"}, "value": {"tensor": {"dtype": "DT_FLOAT", "tensorShape": {}}}}}, {"name": "StatefulPartitionedCall/sequential_1/keras_layer_1/StatefulPartitionedCall/StatefulPartitionedCall/StatefulPartitionedCall/predict/MobilenetV3/expanded_conv_4/expand/hard_swish/mul_1/y", "op": "Const", "input": ["^keras_layer_1_input"], "attr": {"value": {"tensor": {"dtype": "DT_FLOAT", "tensorShape": {}}}, "dtype": {"type": "DT_FLOAT"}}}, {"name": "StatefulPartitionedCall/sequential_1/keras_layer_1/StatefulPartitionedCall/StatefulPartitionedCall/StatefulPartitionedCall/predict/MobilenetV3/expanded_conv_4/expand/hard_swish/add/y", "op": "Const", "input": ["^keras_layer_1_input"], "attr": {"dtype": {"type": "DT_FLOAT"}, "value": {"tensor": {"dtype": "DT_FLOAT", "tensorShape": {}}}}}, {"name": "StatefulPartitionedCall/sequential_1/keras_layer_1/StatefulPartitionedCall/StatefulPartitionedCall/StatefulPartitionedCall/predict/MobilenetV3/expanded_conv_4/depthwise/hard_swish/add/y", "op": "Const", "input": ["^keras_layer_1_input"], "attr": {"value": {"tensor": {"dtype": "DT_FLOAT", "tensorShape": {}}}, "dtype": {"type": "DT_FLOAT"}}}, {"name": "StatefulPartitionedCall/sequential_1/keras_layer_1/StatefulPartitionedCall/StatefulPartitionedCall/StatefulPartitionedCall/predict/MobilenetV3/expanded_conv_3/squeeze_excite/Conv_1/mul/y", "op": "Const", "input": ["^keras_layer_1_input"], "attr": {"dtype": {"type": "DT_FLOAT"}, "value": {"tensor": {"dtype": "DT_FLOAT", "tensorShape": {}}}}}, {"name": "StatefulPartitionedCall/sequential_1/keras_layer_1/StatefulPartitionedCall/StatefulPartitionedCall/StatefulPartitionedCall/predict/MobilenetV3/expanded_conv_3/squeeze_excite/Mean/reduction_indices", "op": "Const", "input": ["^keras_layer_1_input"], "attr": {"value": {"tensor": {"dtype": "DT_INT32", "tensorShape": {"dim": [{"size": "2"}]}}}, "dtype": {"type": "DT_INT32"}}}, {"name": "Func/StatefulPartitionedCall/sequential_1/keras_layer_1/StatefulPartitionedCall/StatefulPartitionedCall/StatefulPartitionedCall/input/_700", "op": "Const", "input": ["^keras_layer_1_input"], "attr": {"dtype": {"type": "DT_FLOAT"}, "value": {"tensor": {"dtype": "DT_FLOAT", "tensorShape": {"dim": [{"size": "1"}, {"size": "1"}, {"size": "96"}, {"size": "24"}]}}}}}, {"name": "Func/StatefulPartitionedCall/sequential_1/keras_layer_1/StatefulPartitionedCall/StatefulPartitionedCall/StatefulPartitionedCall/input/_701", "op": "Const", "input": ["^keras_layer_1_input"], "attr": {"value": {"tensor": {"dtype": "DT_FLOAT", "tensorShape": {"dim": [{"size": "24"}]}}}, "dtype": {"type": "DT_FLOAT"}}}, {"name": "Func/StatefulPartitionedCall/sequential_1/keras_layer_1/StatefulPartitionedCall/StatefulPartitionedCall/StatefulPartitionedCall/input/_702", "op": "Const", "input": ["^keras_layer_1_input"], "attr": {"value": {"tensor": {"dtype": "DT_FLOAT", "tensorShape": {"dim": [{"size": "1"}, {"size": "1"}, {"size": "24"}, {"size": "96"}]}}}, "dtype": {"type": "DT_FLOAT"}}}, {"name": "Func/StatefulPartitionedCall/sequential_1/keras_layer_1/StatefulPartitionedCall/StatefulPartitionedCall/StatefulPartitionedCall/input/_703", "op": "Const", "input": ["^keras_layer_1_input"], "attr": {"value": {"tensor": {"dtype": "DT_FLOAT", "tensorShape": {"dim": [{"size": "96"}]}}}, "dtype": {"type": "DT_FLOAT"}}}, {"name": "StatefulPartitionedCall/sequential_1/keras_layer_1/StatefulPartitionedCall/StatefulPartitionedCall/StatefulPartitionedCall/predict/MobilenetV3/expanded_conv_3/squeeze_excite/Conv_1/add/y", "op": "Const", "input": ["^keras_layer_1_input"], "attr": {"dtype": {"type": "DT_FLOAT"}, "value": {"tensor": {"dtype": "DT_FLOAT", "tensorShape": {}}}}}, {"name": "StatefulPartitionedCall/sequential_1/keras_layer_1/StatefulPartitionedCall/StatefulPartitionedCall/StatefulPartitionedCall/predict/MobilenetV3/expanded_conv_3/depthwise/hard_swish/mul_1/y", "op": "Const", "input": ["^keras_layer_1_input"], "attr": {"dtype": {"type": "DT_FLOAT"}, "value": {"tensor": {"dtype": "DT_FLOAT", "tensorShape": {}}}}}, {"name": "StatefulPartitionedCall/sequential_1/keras_layer_1/StatefulPartitionedCall/StatefulPartitionedCall/StatefulPartitionedCall/predict/MobilenetV3/expanded_conv_3/expand/hard_swish/mul_1/y", "op": "Const", "input": ["^keras_layer_1_input"], "attr": {"value": {"tensor": {"dtype": "DT_FLOAT", "tensorShape": {}}}, "dtype": {"type": "DT_FLOAT"}}}, {"name": "StatefulPartitionedCall/sequential_1/keras_layer_1/StatefulPartitionedCall/StatefulPartitionedCall/StatefulPartitionedCall/predict/MobilenetV3/expanded_conv/squeeze_excite/Conv_1/mul/y", "op": "Const", "input": ["^keras_layer_1_input"], "attr": {"value": {"tensor": {"dtype": "DT_FLOAT", "tensorShape": {}}}, "dtype": {"type": "DT_FLOAT"}}}, {"name": "StatefulPartitionedCall/sequential_1/keras_layer_1/StatefulPartitionedCall/StatefulPartitionedCall/StatefulPartitionedCall/predict/MobilenetV3/expanded_conv/squeeze_excite/Mean/reduction_indices", "op": "Const", "input": ["^keras_layer_1_input"], "attr": {"dtype": {"type": "DT_INT32"}, "value": {"tensor": {"dtype": "DT_INT32", "tensorShape": {"dim": [{"size": "2"}]}}}}}, {"name": "Func/StatefulPartitionedCall/sequential_1/keras_layer_1/StatefulPartitionedCall/StatefulPartitionedCall/StatefulPartitionedCall/input/_651", "op": "Const", "input": ["^keras_layer_1_input"], "attr": {"dtype": {"type": "DT_FLOAT"}, "value": {"tensor": {"dtype": "DT_FLOAT", "tensorShape": {"dim": [{"size": "1"}, {"size": "1"}, {"size": "16"}, {"size": "8"}]}}}}}, {"name": "Func/StatefulPartitionedCall/sequential_1/keras_layer_1/StatefulPartitionedCall/StatefulPartitionedCall/StatefulPartitionedCall/input/_652", "op": "Const", "input": ["^keras_layer_1_input"], "attr": {"value": {"tensor": {"dtype": "DT_FLOAT", "tensorShape": {"dim": [{"size": "8"}]}}}, "dtype": {"type": "DT_FLOAT"}}}, {"name": "Func/StatefulPartitionedCall/sequential_1/keras_layer_1/StatefulPartitionedCall/StatefulPartitionedCall/StatefulPartitionedCall/input/_653", "op": "Const", "input": ["^keras_layer_1_input"], "attr": {"dtype": {"type": "DT_FLOAT"}, "value": {"tensor": {"dtype": "DT_FLOAT", "tensorShape": {"dim": [{"size": "1"}, {"size": "1"}, {"size": "8"}, {"size": "16"}]}}}}}, {"name": "Func/StatefulPartitionedCall/sequential_1/keras_layer_1/StatefulPartitionedCall/StatefulPartitionedCall/StatefulPartitionedCall/input/_654", "op": "Const", "input": ["^keras_layer_1_input"], "attr": {"dtype": {"type": "DT_FLOAT"}, "value": {"tensor": {"dtype": "DT_FLOAT", "tensorShape": {"dim": [{"size": "16"}]}}}}}, {"name": "StatefulPartitionedCall/sequential_1/keras_layer_1/StatefulPartitionedCall/StatefulPartitionedCall/StatefulPartitionedCall/predict/MobilenetV3/expanded_conv/squeeze_excite/Conv_1/add/y", "op": "Const", "input": ["^keras_layer_1_input"], "attr": {"value": {"tensor": {"dtype": "DT_FLOAT", "tensorShape": {}}}, "dtype": {"type": "DT_FLOAT"}}}, {"name": "StatefulPartitionedCall/sequential_1/keras_layer_1/StatefulPartitionedCall/StatefulPartitionedCall/StatefulPartitionedCall/predict/MobilenetV3/Conv/hard_swish/mul_1/y", "op": "Const", "input": ["^keras_layer_1_input"], "attr": {"value": {"tensor": {"dtype": "DT_FLOAT", "tensorShape": {}}}, "dtype": {"type": "DT_FLOAT"}}}, {"name": "StatefulPartitionedCall/sequential_1/keras_layer_1/StatefulPartitionedCall/StatefulPartitionedCall/StatefulPartitionedCall/predict/hub_input/Mul/y", "op": "Const", "input": ["^keras_layer_1_input"], "attr": {"value": {"tensor": {"dtype": "DT_FLOAT", "tensorShape": {}}}, "dtype": {"type": "DT_FLOAT"}}}, {"name": "StatefulPartitionedCall/sequential_1/keras_layer_1/StatefulPartitionedCall/StatefulPartitionedCall/StatefulPartitionedCall/predict/hub_input/Sub/y", "op": "Const", "input": ["^keras_layer_1_input"], "attr": {"value": {"tensor": {"dtype": "DT_FLOAT", "tensorShape": {}}}, "dtype": {"type": "DT_FLOAT"}}}, {"name": "StatefulPartitionedCall/sequential_1/keras_layer_1/StatefulPartitionedCall/StatefulPartitionedCall/StatefulPartitionedCall/predict/MobilenetV3/Conv/hard_swish/add/y", "op": "Const", "input": ["^keras_layer_1_input"], "attr": {"value": {"tensor": {"dtype": "DT_FLOAT", "tensorShape": {}}}, "dtype": {"type": "DT_FLOAT"}}}, {"name": "StatefulPartitionedCall/sequential_1/keras_layer_1/StatefulPartitionedCall/StatefulPartitionedCall/StatefulPartitionedCall/predict/MobilenetV3/expanded_conv_3/expand/hard_swish/add/y", "op": "Const", "input": ["^keras_layer_1_input"], "attr": {"dtype": {"type": "DT_FLOAT"}, "value": {"tensor": {"dtype": "DT_FLOAT", "tensorShape": {}}}}}, {"name": "StatefulPartitionedCall/sequential_1/keras_layer_1/StatefulPartitionedCall/StatefulPartitionedCall/StatefulPartitionedCall/predict/MobilenetV3/expanded_conv_3/depthwise/hard_swish/add/y", "op": "Const", "input": ["^keras_layer_1_input"], "attr": {"dtype": {"type": "DT_FLOAT"}, "value": {"tensor": {"dtype": "DT_FLOAT", "tensorShape": {}}}}}, {"name": "StatefulPartitionedCall/sequential_1/keras_layer_1/StatefulPartitionedCall/StatefulPartitionedCall/StatefulPartitionedCall/predict/MobilenetV3/expanded_conv_6/expand/hard_swish/add/y", "op": "Const", "input": ["^keras_layer_1_input"], "attr": {"dtype": {"type": "DT_FLOAT"}, "value": {"tensor": {"dtype": "DT_FLOAT", "tensorShape": {}}}}}, {"name": "StatefulPartitionedCall/sequential_1/keras_layer_1/StatefulPartitionedCall/StatefulPartitionedCall/StatefulPartitionedCall/predict/MobilenetV3/expanded_conv_6/depthwise/hard_swish/add/y", "op": "Const", "input": ["^keras_layer_1_input"], "attr": {"value": {"tensor": {"dtype": "DT_FLOAT", "tensorShape": {}}}, "dtype": {"type": "DT_FLOAT"}}}, {"name": "StatefulPartitionedCall/sequential_1/keras_layer_1/StatefulPartitionedCall/StatefulPartitionedCall/StatefulPartitionedCall/predict/MobilenetV3/expanded_conv_8/expand/hard_swish/add/y", "op": "Const", "input": ["^keras_layer_1_input"], "attr": {"dtype": {"type": "DT_FLOAT"}, "value": {"tensor": {"dtype": "DT_FLOAT", "tensorShape": {}}}}}, {"name": "StatefulPartitionedCall/sequential_1/keras_layer_1/StatefulPartitionedCall/StatefulPartitionedCall/StatefulPartitionedCall/predict/MobilenetV3/expanded_conv_8/depthwise/hard_swish/add/y", "op": "Const", "input": ["^keras_layer_1_input"], "attr": {"dtype": {"type": "DT_FLOAT"}, "value": {"tensor": {"dtype": "DT_FLOAT", "tensorShape": {}}}}}, {"name": "StatefulPartitionedCall/sequential_1/keras_layer_1/StatefulPartitionedCall/StatefulPartitionedCall/StatefulPartitionedCall/predict/MobilenetV3/Conv_1/hard_swish/add/y", "op": "Const", "input": ["^keras_layer_1_input"], "attr": {"value": {"tensor": {"dtype": "DT_FLOAT", "tensorShape": {}}}, "dtype": {"type": "DT_FLOAT"}}}, {"name": "Func/StatefulPartitionedCall/sequential_1/keras_layer_1/StatefulPartitionedCall/StatefulPartitionedCall/StatefulPartitionedCall/input/_847", "op": "Const", "input": ["^keras_layer_1_input"], "attr": {"dtype": {"type": "DT_FLOAT"}, "value": {"tensor": {"dtype": "DT_FLOAT", "tensorShape": {"dim": [{"size": "1"}, {"size": "1"}, {"size": "432"}, {"size": "1024"}]}}}}}, {"name": "Func/StatefulPartitionedCall/sequential_1/keras_layer_1/StatefulPartitionedCall/StatefulPartitionedCall/StatefulPartitionedCall/input/_848", "op": "Const", "input": ["^keras_layer_1_input"], "attr": {"dtype": {"type": "DT_FLOAT"}, "value": {"tensor": {"dtype": "DT_FLOAT", "tensorShape": {"dim": [{"size": "1024"}]}}}}}, {"name": "StatefulPartitionedCall/sequential_1/keras_layer_1/StatefulPartitionedCall/StatefulPartitionedCall/StatefulPartitionedCall/predict/MobilenetV3/Conv_2/hard_swish/add/y", "op": "Const", "input": ["^keras_layer_1_input"], "attr": {"value": {"tensor": {"dtype": "DT_FLOAT", "tensorShape": {}}}, "dtype": {"type": "DT_FLOAT"}}}, {"name": "StatefulPartitionedCall/sequential_1/keras_layer_1/StatefulPartitionedCall/StatefulPartitionedCall/StatefulPartitionedCall/predict/hub_input/Mul", "op": "Mul", "input": ["keras_layer_1_input", "StatefulPartitionedCall/sequential_1/keras_layer_1/StatefulPartitionedCall/StatefulPartitionedCall/StatefulPartitionedCall/predict/hub_input/Mul/y"], "attr": {"T": {"type": "DT_FLOAT"}}}, {"name": "StatefulPartitionedCall/sequential_1/keras_layer_1/StatefulPartitionedCall/StatefulPartitionedCall/StatefulPartitionedCall/predict/hub_input/Sub", "op": "Sub", "input": ["StatefulPartitionedCall/sequential_1/keras_layer_1/StatefulPartitionedCall/StatefulPartitionedCall/StatefulPartitionedCall/predict/hub_input/Mul", "StatefulPartitionedCall/sequential_1/keras_layer_1/StatefulPartitionedCall/StatefulPartitionedCall/StatefulPartitionedCall/predict/hub_input/Sub/y"], "attr": {"T": {"type": "DT_FLOAT"}}}, {"name": "StatefulPartitionedCall/sequential_1/keras_layer_1/StatefulPartitionedCall/StatefulPartitionedCall/StatefulPartitionedCall/predict/MobilenetV3/Conv/BatchNorm/FusedBatchNormV3", "op": "_FusedConv2D", "input": ["StatefulPartitionedCall/sequential_1/keras_layer_1/StatefulPartitionedCall/StatefulPartitionedCall/StatefulPartitionedCall/predict/hub_input/Sub", "StatefulPartitionedCall/sequential_1/keras_layer_1/StatefulPartitionedCall/StatefulPartitionedCall/StatefulPartitionedCall/predict/MobilenetV3/Conv/Conv2D_weights", "StatefulPartitionedCall/sequential_1/keras_layer_1/StatefulPartitionedCall/StatefulPartitionedCall/StatefulPartitionedCall/predict/MobilenetV3/Conv/Conv2D_bn_offset"], "device": "/device:CPU:0", "attr": {"num_args": {"i": "1"}, "data_format": {"s": "TkhXQw=="}, "use_cudnn_on_gpu": {"b": true}, "filter_format": {"s": "SFdJTw=="}, "strides": {"list": {"i": ["1", "2", "2", "1"]}}, "explicit_paddings": {"list": {}}, "T": {"type": "DT_FLOAT"}, "num_host_args": {"i": "0"}, "dilations": {"list": {"i": ["1", "1", "1", "1"]}}, "fused_ops": {"list": {"s": ["Qmlhc0FkZA=="]}}, "TArgs": {"list": {"type": ["DT_FLOAT"]}}, "epsilon": {"f": 0.0}, "leakyrelu_alpha": {"f": 0.2}, "padding": {"s": "U0FNRQ=="}}}, {"name": "StatefulPartitionedCall/sequential_1/keras_layer_1/StatefulPartitionedCall/StatefulPartitionedCall/StatefulPartitionedCall/predict/MobilenetV3/Conv/hard_swish/mul", "op": "Mul", "input": ["StatefulPartitionedCall/sequential_1/keras_layer_1/StatefulPartitionedCall/StatefulPartitionedCall/StatefulPartitionedCall/predict/MobilenetV3/Conv/hard_swish/mul_1/y", "StatefulPartitionedCall/sequential_1/keras_layer_1/StatefulPartitionedCall/StatefulPartitionedCall/StatefulPartitionedCall/predict/MobilenetV3/Conv/BatchNorm/FusedBatchNormV3"], "attr": {"_grappler_ArithmeticOptimizer_MinimizeBroadcasts": {"b": true}, "T": {"type": "DT_FLOAT"}}}, {"name": "StatefulPartitionedCall/sequential_1/keras_layer_1/StatefulPartitionedCall/StatefulPartitionedCall/StatefulPartitionedCall/predict/MobilenetV3/Conv/hard_swish/add", "op": "AddV2", "input": ["StatefulPartitionedCall/sequential_1/keras_layer_1/StatefulPartitionedCall/StatefulPartitionedCall/StatefulPartitionedCall/predict/MobilenetV3/Conv/BatchNorm/FusedBatchNormV3", "StatefulPartitionedCall/sequential_1/keras_layer_1/StatefulPartitionedCall/StatefulPartitionedCall/StatefulPartitionedCall/predict/MobilenetV3/Conv/hard_swish/add/y"], "attr": {"T": {"type": "DT_FLOAT"}}}, {"name": "StatefulPartitionedCall/sequential_1/keras_layer_1/StatefulPartitionedCall/StatefulPartitionedCall/StatefulPartitionedCall/predict/MobilenetV3/Conv/hard_swish/Relu6", "op": "Relu6", "input": ["StatefulPartitionedCall/sequential_1/keras_layer_1/StatefulPartitionedCall/StatefulPartitionedCall/StatefulPartitionedCall/predict/MobilenetV3/Conv/hard_swish/add"], "attr": {"T": {"type": "DT_FLOAT"}}}, {"name": "StatefulPartitionedCall/sequential_1/keras_layer_1/StatefulPartitionedCall/StatefulPartitionedCall/StatefulPartitionedCall/predict/MobilenetV3/Conv/hard_swish/mul_1", "op": "Mul", "input": ["StatefulPartitionedCall/sequential_1/keras_layer_1/StatefulPartitionedCall/StatefulPartitionedCall/StatefulPartitionedCall/predict/MobilenetV3/Conv/hard_swish/mul", "StatefulPartitionedCall/sequential_1/keras_layer_1/StatefulPartitionedCall/StatefulPartitionedCall/StatefulPartitionedCall/predict/MobilenetV3/Conv/hard_swish/Relu6"], "attr": {"T": {"type": "DT_FLOAT"}, "_grappler_ArithmeticOptimizer_MinimizeBroadcasts": {"b": true}}}, {"name": "StatefulPartitionedCall/sequential_1/keras_layer_1/StatefulPartitionedCall/StatefulPartitionedCall/StatefulPartitionedCall/predict/MobilenetV3/expanded_conv/depthwise/depthwise", "op": "FusedDepthwiseConv2dNative", "input": ["StatefulPartitionedCall/sequential_1/keras_layer_1/StatefulPartitionedCall/StatefulPartitionedCall/StatefulPartitionedCall/predict/MobilenetV3/Conv/hard_swish/mul_1", "StatefulPartitionedCall/sequential_1/keras_layer_1/StatefulPartitionedCall/StatefulPartitionedCall/StatefulPartitionedCall/predict/MobilenetV3/expanded_conv/depthwise/depthwise_weights", "StatefulPartitionedCall/sequential_1/keras_layer_1/StatefulPartitionedCall/StatefulPartitionedCall/StatefulPartitionedCall/predict/MobilenetV3/expanded_conv/depthwise/depthwise_bn_offset"], "attr": {"strides": {"list": {"i": ["1", "2", "2", "1"]}}, "padding": {"s": "U0FNRQ=="}, "fused_ops": {"list": {"s": ["Qmlhc0FkZA==", "UmVsdQ=="]}}, "T": {"type": "DT_FLOAT"}, "dilations": {"list": {"i": ["1", "1", "1", "1"]}}, "num_args": {"i": "1"}, "data_format": {"s": "TkhXQw=="}, "explicit_paddings": {"list": {}}}}, {"name": "StatefulPartitionedCall/sequential_1/keras_layer_1/StatefulPartitionedCall/StatefulPartitionedCall/StatefulPartitionedCall/predict/MobilenetV3/expanded_conv/squeeze_excite/Mean", "op": "Mean", "input": ["StatefulPartitionedCall/sequential_1/keras_layer_1/StatefulPartitionedCall/StatefulPartitionedCall/StatefulPartitionedCall/predict/MobilenetV3/expanded_conv/depthwise/depthwise", "StatefulPartitionedCall/sequential_1/keras_layer_1/StatefulPartitionedCall/StatefulPartitionedCall/StatefulPartitionedCall/predict/MobilenetV3/expanded_conv/squeeze_excite/Mean/reduction_indices"], "attr": {"T": {"type": "DT_FLOAT"}, "Tidx": {"type": "DT_INT32"}, "keep_dims": {"b": true}}}, {"name": "StatefulPartitionedCall/sequential_1/keras_layer_1/StatefulPartitionedCall/StatefulPartitionedCall/StatefulPartitionedCall/predict/MobilenetV3/expanded_conv/squeeze_excite/Conv/Relu", "op": "_FusedConv2D", "input": ["StatefulPartitionedCall/sequential_1/keras_layer_1/StatefulPartitionedCall/StatefulPartitionedCall/StatefulPartitionedCall/predict/MobilenetV3/expanded_conv/squeeze_excite/Mean", "Func/StatefulPartitionedCall/sequential_1/keras_layer_1/StatefulPartitionedCall/StatefulPartitionedCall/StatefulPartitionedCall/input/_651", "Func/StatefulPartitionedCall/sequential_1/keras_layer_1/StatefulPartitionedCall/StatefulPartitionedCall/StatefulPartitionedCall/input/_652"], "device": "/device:CPU:0", "attr": {"strides": {"list": {"i": ["1", "1", "1", "1"]}}, "TArgs": {"list": {"type": ["DT_FLOAT"]}}, "explicit_paddings": {"list": {}}, "T": {"type": "DT_FLOAT"}, "epsilon": {"f": 0.0}, "padding": {"s": "U0FNRQ=="}, "leakyrelu_alpha": {"f": 0.2}, "fused_ops": {"list": {"s": ["Qmlhc0FkZA==", "UmVsdQ=="]}}, "filter_format": {"s": "SFdJTw=="}, "num_args": {"i": "1"}, "num_host_args": {"i": "0"}, "data_format": {"s": "TkhXQw=="}, "dilations": {"list": {"i": ["1", "1", "1", "1"]}}, "use_cudnn_on_gpu": {"b": true}}}, {"name": "StatefulPartitionedCall/sequential_1/keras_layer_1/StatefulPartitionedCall/StatefulPartitionedCall/StatefulPartitionedCall/predict/MobilenetV3/expanded_conv/squeeze_excite/Conv_1/BiasAdd", "op": "_FusedConv2D", "input": ["StatefulPartitionedCall/sequential_1/keras_layer_1/StatefulPartitionedCall/StatefulPartitionedCall/StatefulPartitionedCall/predict/MobilenetV3/expanded_conv/squeeze_excite/Conv/Relu", "Func/StatefulPartitionedCall/sequential_1/keras_layer_1/StatefulPartitionedCall/StatefulPartitionedCall/StatefulPartitionedCall/input/_653", "Func/StatefulPartitionedCall/sequential_1/keras_layer_1/StatefulPartitionedCall/StatefulPartitionedCall/StatefulPartitionedCall/input/_654"], "device": "/device:CPU:0", "attr": {"data_format": {"s": "TkhXQw=="}, "padding": {"s": "U0FNRQ=="}, "filter_format": {"s": "SFdJTw=="}, "use_cudnn_on_gpu": {"b": true}, "TArgs": {"list": {"type": ["DT_FLOAT"]}}, "num_args": {"i": "1"}, "strides": {"list": {"i": ["1", "1", "1", "1"]}}, "leakyrelu_alpha": {"f": 0.2}, "explicit_paddings": {"list": {}}, "T": {"type": "DT_FLOAT"}, "num_host_args": {"i": "0"}, "dilations": {"list": {"i": ["1", "1", "1", "1"]}}, "fused_ops": {"list": {"s": ["Qmlhc0FkZA=="]}}, "epsilon": {"f": 0.0}}}, {"name": "StatefulPartitionedCall/sequential_1/keras_layer_1/StatefulPartitionedCall/StatefulPartitionedCall/StatefulPartitionedCall/predict/MobilenetV3/expanded_conv/squeeze_excite/Conv_1/add", "op": "AddV2", "input": ["StatefulPartitionedCall/sequential_1/keras_layer_1/StatefulPartitionedCall/StatefulPartitionedCall/StatefulPartitionedCall/predict/MobilenetV3/expanded_conv/squeeze_excite/Conv_1/BiasAdd", "StatefulPartitionedCall/sequential_1/keras_layer_1/StatefulPartitionedCall/StatefulPartitionedCall/StatefulPartitionedCall/predict/MobilenetV3/expanded_conv/squeeze_excite/Conv_1/add/y"], "attr": {"T": {"type": "DT_FLOAT"}}}, {"name": "StatefulPartitionedCall/sequential_1/keras_layer_1/StatefulPartitionedCall/StatefulPartitionedCall/StatefulPartitionedCall/predict/MobilenetV3/expanded_conv/squeeze_excite/Conv_1/Relu6", "op": "Relu6", "input": ["StatefulPartitionedCall/sequential_1/keras_layer_1/StatefulPartitionedCall/StatefulPartitionedCall/StatefulPartitionedCall/predict/MobilenetV3/expanded_conv/squeeze_excite/Conv_1/add"], "attr": {"T": {"type": "DT_FLOAT"}}}, {"name": "StatefulPartitionedCall/sequential_1/keras_layer_1/StatefulPartitionedCall/StatefulPartitionedCall/StatefulPartitionedCall/predict/MobilenetV3/expanded_conv/squeeze_excite/Conv_1/mul", "op": "Mul", "input": ["StatefulPartitionedCall/sequential_1/keras_layer_1/StatefulPartitionedCall/StatefulPartitionedCall/StatefulPartitionedCall/predict/MobilenetV3/expanded_conv/squeeze_excite/Conv_1/mul/y", "StatefulPartitionedCall/sequential_1/keras_layer_1/StatefulPartitionedCall/StatefulPartitionedCall/StatefulPartitionedCall/predict/MobilenetV3/expanded_conv/squeeze_excite/Conv_1/Relu6"], "attr": {"_grappler_ArithmeticOptimizer_MinimizeBroadcasts": {"b": true}, "T": {"type": "DT_FLOAT"}}}, {"name": "StatefulPartitionedCall/sequential_1/keras_layer_1/StatefulPartitionedCall/StatefulPartitionedCall/StatefulPartitionedCall/predict/MobilenetV3/expanded_conv/squeeze_excite/mul", "op": "Mul", "input": ["StatefulPartitionedCall/sequential_1/keras_layer_1/StatefulPartitionedCall/StatefulPartitionedCall/StatefulPartitionedCall/predict/MobilenetV3/expanded_conv/squeeze_excite/Conv_1/mul", "StatefulPartitionedCall/sequential_1/keras_layer_1/StatefulPartitionedCall/StatefulPartitionedCall/StatefulPartitionedCall/predict/MobilenetV3/expanded_conv/depthwise/depthwise"], "attr": {"_grappler_ArithmeticOptimizer_MinimizeBroadcasts": {"b": true}, "T": {"type": "DT_FLOAT"}}}, {"name": "StatefulPartitionedCall/sequential_1/keras_layer_1/StatefulPartitionedCall/StatefulPartitionedCall/StatefulPartitionedCall/predict/MobilenetV3/expanded_conv/project/BatchNorm/FusedBatchNormV3", "op": "_FusedConv2D", "input": ["StatefulPartitionedCall/sequential_1/keras_layer_1/StatefulPartitionedCall/StatefulPartitionedCall/StatefulPartitionedCall/predict/MobilenetV3/expanded_conv/squeeze_excite/mul", "StatefulPartitionedCall/sequential_1/keras_layer_1/StatefulPartitionedCall/StatefulPartitionedCall/StatefulPartitionedCall/predict/MobilenetV3/expanded_conv/project/Conv2D_weights", "StatefulPartitionedCall/sequential_1/keras_layer_1/StatefulPartitionedCall/StatefulPartitionedCall/StatefulPartitionedCall/predict/MobilenetV3/expanded_conv/project/Conv2D_bn_offset"], "device": "/device:CPU:0", "attr": {"data_format": {"s": "TkhXQw=="}, "leakyrelu_alpha": {"f": 0.2}, "explicit_paddings": {"list": {}}, "TArgs": {"list": {"type": ["DT_FLOAT"]}}, "use_cudnn_on_gpu": {"b": true}, "dilations": {"list": {"i": ["1", "1", "1", "1"]}}, "T": {"type": "DT_FLOAT"}, "filter_format": {"s": "SFdJTw=="}, "num_args": {"i": "1"}, "strides": {"list": {"i": ["1", "1", "1", "1"]}}, "num_host_args": {"i": "0"}, "epsilon": {"f": 0.0}, "fused_ops": {"list": {"s": ["Qmlhc0FkZA=="]}}, "padding": {"s": "U0FNRQ=="}}}, {"name": "StatefulPartitionedCall/sequential_1/keras_layer_1/StatefulPartitionedCall/StatefulPartitionedCall/StatefulPartitionedCall/predict/MobilenetV3/expanded_conv_1/expand/Relu", "op": "_FusedConv2D", "input": ["StatefulPartitionedCall/sequential_1/keras_layer_1/StatefulPartitionedCall/StatefulPartitionedCall/StatefulPartitionedCall/predict/MobilenetV3/expanded_conv/project/BatchNorm/FusedBatchNormV3", "StatefulPartitionedCall/sequential_1/keras_layer_1/StatefulPartitionedCall/StatefulPartitionedCall/StatefulPartitionedCall/predict/MobilenetV3/expanded_conv_1/expand/Conv2D_weights", "StatefulPartitionedCall/sequential_1/keras_layer_1/StatefulPartitionedCall/StatefulPartitionedCall/StatefulPartitionedCall/predict/MobilenetV3/expanded_conv_1/expand/Conv2D_bn_offset"], "device": "/device:CPU:0", "attr": {"data_format": {"s": "TkhXQw=="}, "dilations": {"list": {"i": ["1", "1", "1", "1"]}}, "num_args": {"i": "1"}, "epsilon": {"f": 0.0}, "T": {"type": "DT_FLOAT"}, "TArgs": {"list": {"type": ["DT_FLOAT"]}}, "fused_ops": {"list": {"s": ["Qmlhc0FkZA==", "UmVsdQ=="]}}, "leakyrelu_alpha": {"f": 0.2}, "strides": {"list": {"i": ["1", "1", "1", "1"]}}, "num_host_args": {"i": "0"}, "use_cudnn_on_gpu": {"b": true}, "padding": {"s": "U0FNRQ=="}, "filter_format": {"s": "SFdJTw=="}, "explicit_paddings": {"list": {}}}}, {"name": "StatefulPartitionedCall/sequential_1/keras_layer_1/StatefulPartitionedCall/StatefulPartitionedCall/StatefulPartitionedCall/predict/MobilenetV3/expanded_conv_1/depthwise/depthwise", "op": "FusedDepthwiseConv2dNative", "input": ["StatefulPartitionedCall/sequential_1/keras_layer_1/StatefulPartitionedCall/StatefulPartitionedCall/StatefulPartitionedCall/predict/MobilenetV3/expanded_conv_1/expand/Relu", "StatefulPartitionedCall/sequential_1/keras_layer_1/StatefulPartitionedCall/StatefulPartitionedCall/StatefulPartitionedCall/predict/MobilenetV3/expanded_conv_1/depthwise/depthwise_weights", "StatefulPartitionedCall/sequential_1/keras_layer_1/StatefulPartitionedCall/StatefulPartitionedCall/StatefulPartitionedCall/predict/MobilenetV3/expanded_conv_1/depthwise/depthwise_bn_offset"], "attr": {"padding": {"s": "U0FNRQ=="}, "fused_ops": {"list": {"s": ["Qmlhc0FkZA==", "UmVsdQ=="]}}, "strides": {"list": {"i": ["1", "2", "2", "1"]}}, "explicit_paddings": {"list": {}}, "data_format": {"s": "TkhXQw=="}, "dilations": {"list": {"i": ["1", "1", "1", "1"]}}, "num_args": {"i": "1"}, "T": {"type": "DT_FLOAT"}}}, {"name": "StatefulPartitionedCall/sequential_1/keras_layer_1/StatefulPartitionedCall/StatefulPartitionedCall/StatefulPartitionedCall/predict/MobilenetV3/expanded_conv_1/project/BatchNorm/FusedBatchNormV3", "op": "_FusedConv2D", "input": ["StatefulPartitionedCall/sequential_1/keras_layer_1/StatefulPartitionedCall/StatefulPartitionedCall/StatefulPartitionedCall/predict/MobilenetV3/expanded_conv_1/depthwise/depthwise", "StatefulPartitionedCall/sequential_1/keras_layer_1/StatefulPartitionedCall/StatefulPartitionedCall/StatefulPartitionedCall/predict/MobilenetV3/expanded_conv_1/project/Conv2D_weights", "StatefulPartitionedCall/sequential_1/keras_layer_1/StatefulPartitionedCall/StatefulPartitionedCall/StatefulPartitionedCall/predict/MobilenetV3/expanded_conv_1/project/Conv2D_bn_offset"], "device": "/device:CPU:0", "attr": {"epsilon": {"f": 0.0}, "num_host_args": {"i": "0"}, "TArgs": {"list": {"type": ["DT_FLOAT"]}}, "strides": {"list": {"i": ["1", "1", "1", "1"]}}, "fused_ops": {"list": {"s": ["Qmlhc0FkZA=="]}}, "filter_format": {"s": "SFdJTw=="}, "dilations": {"list": {"i": ["1", "1", "1", "1"]}}, "num_args": {"i": "1"}, "padding": {"s": "U0FNRQ=="}, "leakyrelu_alpha": {"f": 0.2}, "use_cudnn_on_gpu": {"b": true}, "T": {"type": "DT_FLOAT"}, "data_format": {"s": "TkhXQw=="}, "explicit_paddings": {"list": {}}}}, {"name": "StatefulPartitionedCall/sequential_1/keras_layer_1/StatefulPartitionedCall/StatefulPartitionedCall/StatefulPartitionedCall/predict/MobilenetV3/expanded_conv_2/expand/Relu", "op": "_FusedConv2D", "input": ["StatefulPartitionedCall/sequential_1/keras_layer_1/StatefulPartitionedCall/StatefulPartitionedCall/StatefulPartitionedCall/predict/MobilenetV3/expanded_conv_1/project/BatchNorm/FusedBatchNormV3", "StatefulPartitionedCall/sequential_1/keras_layer_1/StatefulPartitionedCall/StatefulPartitionedCall/StatefulPartitionedCall/predict/MobilenetV3/expanded_conv_2/expand/Conv2D_weights", "StatefulPartitionedCall/sequential_1/keras_layer_1/StatefulPartitionedCall/StatefulPartitionedCall/StatefulPartitionedCall/predict/MobilenetV3/expanded_conv_2/expand/Conv2D_bn_offset"], "device": "/device:CPU:0", "attr": {"strides": {"list": {"i": ["1", "1", "1", "1"]}}, "TArgs": {"list": {"type": ["DT_FLOAT"]}}, "data_format": {"s": "TkhXQw=="}, "use_cudnn_on_gpu": {"b": true}, "leakyrelu_alpha": {"f": 0.2}, "T": {"type": "DT_FLOAT"}, "num_args": {"i": "1"}, "epsilon": {"f": 0.0}, "filter_format": {"s": "SFdJTw=="}, "padding": {"s": "U0FNRQ=="}, "dilations": {"list": {"i": ["1", "1", "1", "1"]}}, "num_host_args": {"i": "0"}, "fused_ops": {"list": {"s": ["Qmlhc0FkZA==", "UmVsdQ=="]}}, "explicit_paddings": {"list": {}}}}, {"name": "StatefulPartitionedCall/sequential_1/keras_layer_1/StatefulPartitionedCall/StatefulPartitionedCall/StatefulPartitionedCall/predict/MobilenetV3/expanded_conv_2/depthwise/depthwise", "op": "FusedDepthwiseConv2dNative", "input": ["StatefulPartitionedCall/sequential_1/keras_layer_1/StatefulPartitionedCall/StatefulPartitionedCall/StatefulPartitionedCall/predict/MobilenetV3/expanded_conv_2/expand/Relu", "StatefulPartitionedCall/sequential_1/keras_layer_1/StatefulPartitionedCall/StatefulPartitionedCall/StatefulPartitionedCall/predict/MobilenetV3/expanded_conv_2/depthwise/depthwise_weights", "StatefulPartitionedCall/sequential_1/keras_layer_1/StatefulPartitionedCall/StatefulPartitionedCall/StatefulPartitionedCall/predict/MobilenetV3/expanded_conv_2/depthwise/depthwise_bn_offset"], "attr": {"fused_ops": {"list": {"s": ["Qmlhc0FkZA==", "UmVsdQ=="]}}, "dilations": {"list": {"i": ["1", "1", "1", "1"]}}, "T": {"type": "DT_FLOAT"}, "explicit_paddings": {"list": {}}, "data_format": {"s": "TkhXQw=="}, "num_args": {"i": "1"}, "strides": {"list": {"i": ["1", "1", "1", "1"]}}, "padding": {"s": "U0FNRQ=="}}}, {"name": "StatefulPartitionedCall/sequential_1/keras_layer_1/StatefulPartitionedCall/StatefulPartitionedCall/StatefulPartitionedCall/predict/MobilenetV3/expanded_conv_2/project/BatchNorm/FusedBatchNormV3", "op": "_FusedConv2D", "input": ["StatefulPartitionedCall/sequential_1/keras_layer_1/StatefulPartitionedCall/StatefulPartitionedCall/StatefulPartitionedCall/predict/MobilenetV3/expanded_conv_2/depthwise/depthwise", "StatefulPartitionedCall/sequential_1/keras_layer_1/StatefulPartitionedCall/StatefulPartitionedCall/StatefulPartitionedCall/predict/MobilenetV3/expanded_conv_2/project/Conv2D_weights", "StatefulPartitionedCall/sequential_1/keras_layer_1/StatefulPartitionedCall/StatefulPartitionedCall/StatefulPartitionedCall/predict/MobilenetV3/expanded_conv_2/project/Conv2D_bn_offset"], "device": "/device:CPU:0", "attr": {"T": {"type": "DT_FLOAT"}, "dilations": {"list": {"i": ["1", "1", "1", "1"]}}, "padding": {"s": "U0FNRQ=="}, "use_cudnn_on_gpu": {"b": true}, "explicit_paddings": {"list": {}}, "fused_ops": {"list": {"s": ["Qmlhc0FkZA=="]}}, "epsilon": {"f": 0.0}, "data_format": {"s": "TkhXQw=="}, "leakyrelu_alpha": {"f": 0.2}, "filter_format": {"s": "SFdJTw=="}, "strides": {"list": {"i": ["1", "1", "1", "1"]}}, "num_args": {"i": "1"}, "num_host_args": {"i": "0"}, "TArgs": {"list": {"type": ["DT_FLOAT"]}}}}, {"name": "StatefulPartitionedCall/sequential_1/keras_layer_1/StatefulPartitionedCall/StatefulPartitionedCall/StatefulPartitionedCall/predict/MobilenetV3/expanded_conv_2/add", "op": "AddV2", "input": ["StatefulPartitionedCall/sequential_1/keras_layer_1/StatefulPartitionedCall/StatefulPartitionedCall/StatefulPartitionedCall/predict/MobilenetV3/expanded_conv_2/project/BatchNorm/FusedBatchNormV3", "StatefulPartitionedCall/sequential_1/keras_layer_1/StatefulPartitionedCall/StatefulPartitionedCall/StatefulPartitionedCall/predict/MobilenetV3/expanded_conv_1/project/BatchNorm/FusedBatchNormV3"], "attr": {"T": {"type": "DT_FLOAT"}}}, {"name": "StatefulPartitionedCall/sequential_1/keras_layer_1/StatefulPartitionedCall/StatefulPartitionedCall/StatefulPartitionedCall/predict/MobilenetV3/expanded_conv_3/expand/BatchNorm/FusedBatchNormV3", "op": "_FusedConv2D", "input": ["StatefulPartitionedCall/sequential_1/keras_layer_1/StatefulPartitionedCall/StatefulPartitionedCall/StatefulPartitionedCall/predict/MobilenetV3/expanded_conv_2/add", "StatefulPartitionedCall/sequential_1/keras_layer_1/StatefulPartitionedCall/StatefulPartitionedCall/StatefulPartitionedCall/predict/MobilenetV3/expanded_conv_3/expand/Conv2D_weights", "StatefulPartitionedCall/sequential_1/keras_layer_1/StatefulPartitionedCall/StatefulPartitionedCall/StatefulPartitionedCall/predict/MobilenetV3/expanded_conv_3/expand/Conv2D_bn_offset"], "device": "/device:CPU:0", "attr": {"TArgs": {"list": {"type": ["DT_FLOAT"]}}, "num_args": {"i": "1"}, "data_format": {"s": "TkhXQw=="}, "fused_ops": {"list": {"s": ["Qmlhc0FkZA=="]}}, "use_cudnn_on_gpu": {"b": true}, "filter_format": {"s": "SFdJTw=="}, "dilations": {"list": {"i": ["1", "1", "1", "1"]}}, "padding": {"s": "U0FNRQ=="}, "T": {"type": "DT_FLOAT"}, "num_host_args": {"i": "0"}, "leakyrelu_alpha": {"f": 0.2}, "strides": {"list": {"i": ["1", "1", "1", "1"]}}, "epsilon": {"f": 0.0}, "explicit_paddings": {"list": {}}}}, {"name": "StatefulPartitionedCall/sequential_1/keras_layer_1/StatefulPartitionedCall/StatefulPartitionedCall/StatefulPartitionedCall/predict/MobilenetV3/expanded_conv_3/expand/hard_swish/mul", "op": "Mul", "input": ["StatefulPartitionedCall/sequential_1/keras_layer_1/StatefulPartitionedCall/StatefulPartitionedCall/StatefulPartitionedCall/predict/MobilenetV3/expanded_conv_3/expand/hard_swish/mul_1/y", "StatefulPartitionedCall/sequential_1/keras_layer_1/StatefulPartitionedCall/StatefulPartitionedCall/StatefulPartitionedCall/predict/MobilenetV3/expanded_conv_3/expand/BatchNorm/FusedBatchNormV3"], "attr": {"T": {"type": "DT_FLOAT"}, "_grappler_ArithmeticOptimizer_MinimizeBroadcasts": {"b": true}}}, {"name": "StatefulPartitionedCall/sequential_1/keras_layer_1/StatefulPartitionedCall/StatefulPartitionedCall/StatefulPartitionedCall/predict/MobilenetV3/expanded_conv_3/expand/hard_swish/add", "op": "AddV2", "input": ["StatefulPartitionedCall/sequential_1/keras_layer_1/StatefulPartitionedCall/StatefulPartitionedCall/StatefulPartitionedCall/predict/MobilenetV3/expanded_conv_3/expand/BatchNorm/FusedBatchNormV3", "StatefulPartitionedCall/sequential_1/keras_layer_1/StatefulPartitionedCall/StatefulPartitionedCall/StatefulPartitionedCall/predict/MobilenetV3/expanded_conv_3/expand/hard_swish/add/y"], "attr": {"T": {"type": "DT_FLOAT"}}}, {"name": "StatefulPartitionedCall/sequential_1/keras_layer_1/StatefulPartitionedCall/StatefulPartitionedCall/StatefulPartitionedCall/predict/MobilenetV3/expanded_conv_3/expand/hard_swish/Relu6", "op": "Relu6", "input": ["StatefulPartitionedCall/sequential_1/keras_layer_1/StatefulPartitionedCall/StatefulPartitionedCall/StatefulPartitionedCall/predict/MobilenetV3/expanded_conv_3/expand/hard_swish/add"], "attr": {"T": {"type": "DT_FLOAT"}}}, {"name": "StatefulPartitionedCall/sequential_1/keras_layer_1/StatefulPartitionedCall/StatefulPartitionedCall/StatefulPartitionedCall/predict/MobilenetV3/expanded_conv_3/expand/hard_swish/mul_1", "op": "Mul", "input": ["StatefulPartitionedCall/sequential_1/keras_layer_1/StatefulPartitionedCall/StatefulPartitionedCall/StatefulPartitionedCall/predict/MobilenetV3/expanded_conv_3/expand/hard_swish/mul", "StatefulPartitionedCall/sequential_1/keras_layer_1/StatefulPartitionedCall/StatefulPartitionedCall/StatefulPartitionedCall/predict/MobilenetV3/expanded_conv_3/expand/hard_swish/Relu6"], "attr": {"_grappler_ArithmeticOptimizer_MinimizeBroadcasts": {"b": true}, "T": {"type": "DT_FLOAT"}}}, {"name": "StatefulPartitionedCall/sequential_1/keras_layer_1/StatefulPartitionedCall/StatefulPartitionedCall/StatefulPartitionedCall/predict/MobilenetV3/expanded_conv_3/depthwise/depthwise", "op": "FusedDepthwiseConv2dNative", "input": ["StatefulPartitionedCall/sequential_1/keras_layer_1/StatefulPartitionedCall/StatefulPartitionedCall/StatefulPartitionedCall/predict/MobilenetV3/expanded_conv_3/expand/hard_swish/mul_1", "StatefulPartitionedCall/sequential_1/keras_layer_1/StatefulPartitionedCall/StatefulPartitionedCall/StatefulPartitionedCall/predict/MobilenetV3/expanded_conv_3/depthwise/depthwise_weights", "StatefulPartitionedCall/sequential_1/keras_layer_1/StatefulPartitionedCall/StatefulPartitionedCall/StatefulPartitionedCall/predict/MobilenetV3/expanded_conv_3/depthwise/depthwise_bn_offset"], "attr": {"strides": {"list": {"i": ["1", "2", "2", "1"]}}, "data_format": {"s": "TkhXQw=="}, "fused_ops": {"list": {"s": ["Qmlhc0FkZA=="]}}, "explicit_paddings": {"list": {}}, "num_args": {"i": "1"}, "T": {"type": "DT_FLOAT"}, "dilations": {"list": {"i": ["1", "1", "1", "1"]}}, "padding": {"s": "U0FNRQ=="}}}, {"name": "StatefulPartitionedCall/sequential_1/keras_layer_1/StatefulPartitionedCall/StatefulPartitionedCall/StatefulPartitionedCall/predict/MobilenetV3/expanded_conv_3/depthwise/hard_swish/mul", "op": "Mul", "input": ["StatefulPartitionedCall/sequential_1/keras_layer_1/StatefulPartitionedCall/StatefulPartitionedCall/StatefulPartitionedCall/predict/MobilenetV3/expanded_conv_3/depthwise/hard_swish/mul_1/y", "StatefulPartitionedCall/sequential_1/keras_layer_1/StatefulPartitionedCall/StatefulPartitionedCall/StatefulPartitionedCall/predict/MobilenetV3/expanded_conv_3/depthwise/depthwise"], "attr": {"_grappler_ArithmeticOptimizer_MinimizeBroadcasts": {"b": true}, "T": {"type": "DT_FLOAT"}}}, {"name": "StatefulPartitionedCall/sequential_1/keras_layer_1/StatefulPartitionedCall/StatefulPartitionedCall/StatefulPartitionedCall/predict/MobilenetV3/expanded_conv_3/depthwise/hard_swish/add", "op": "AddV2", "input": ["StatefulPartitionedCall/sequential_1/keras_layer_1/StatefulPartitionedCall/StatefulPartitionedCall/StatefulPartitionedCall/predict/MobilenetV3/expanded_conv_3/depthwise/depthwise", "StatefulPartitionedCall/sequential_1/keras_layer_1/StatefulPartitionedCall/StatefulPartitionedCall/StatefulPartitionedCall/predict/MobilenetV3/expanded_conv_3/depthwise/hard_swish/add/y"], "attr": {"T": {"type": "DT_FLOAT"}}}, {"name": "StatefulPartitionedCall/sequential_1/keras_layer_1/StatefulPartitionedCall/StatefulPartitionedCall/StatefulPartitionedCall/predict/MobilenetV3/expanded_conv_3/depthwise/hard_swish/Relu6", "op": "Relu6", "input": ["StatefulPartitionedCall/sequential_1/keras_layer_1/StatefulPartitionedCall/StatefulPartitionedCall/StatefulPartitionedCall/predict/MobilenetV3/expanded_conv_3/depthwise/hard_swish/add"], "attr": {"T": {"type": "DT_FLOAT"}}}, {"name": "StatefulPartitionedCall/sequential_1/keras_layer_1/StatefulPartitionedCall/StatefulPartitionedCall/StatefulPartitionedCall/predict/MobilenetV3/expanded_conv_3/depthwise/hard_swish/mul_1", "op": "Mul", "input": ["StatefulPartitionedCall/sequential_1/keras_layer_1/StatefulPartitionedCall/StatefulPartitionedCall/StatefulPartitionedCall/predict/MobilenetV3/expanded_conv_3/depthwise/hard_swish/mul", "StatefulPartitionedCall/sequential_1/keras_layer_1/StatefulPartitionedCall/StatefulPartitionedCall/StatefulPartitionedCall/predict/MobilenetV3/expanded_conv_3/depthwise/hard_swish/Relu6"], "attr": {"_grappler_ArithmeticOptimizer_MinimizeBroadcasts": {"b": true}, "T": {"type": "DT_FLOAT"}}}, {"name": "StatefulPartitionedCall/sequential_1/keras_layer_1/StatefulPartitionedCall/StatefulPartitionedCall/StatefulPartitionedCall/predict/MobilenetV3/expanded_conv_3/squeeze_excite/Mean", "op": "Mean", "input": ["StatefulPartitionedCall/sequential_1/keras_layer_1/StatefulPartitionedCall/StatefulPartitionedCall/StatefulPartitionedCall/predict/MobilenetV3/expanded_conv_3/depthwise/hard_swish/mul_1", "StatefulPartitionedCall/sequential_1/keras_layer_1/StatefulPartitionedCall/StatefulPartitionedCall/StatefulPartitionedCall/predict/MobilenetV3/expanded_conv_3/squeeze_excite/Mean/reduction_indices"], "attr": {"Tidx": {"type": "DT_INT32"}, "T": {"type": "DT_FLOAT"}, "keep_dims": {"b": true}}}, {"name": "StatefulPartitionedCall/sequential_1/keras_layer_1/StatefulPartitionedCall/StatefulPartitionedCall/StatefulPartitionedCall/predict/MobilenetV3/expanded_conv_3/squeeze_excite/Conv/Relu", "op": "_FusedConv2D", "input": ["StatefulPartitionedCall/sequential_1/keras_layer_1/StatefulPartitionedCall/StatefulPartitionedCall/StatefulPartitionedCall/predict/MobilenetV3/expanded_conv_3/squeeze_excite/Mean", "Func/StatefulPartitionedCall/sequential_1/keras_layer_1/StatefulPartitionedCall/StatefulPartitionedCall/StatefulPartitionedCall/input/_700", "Func/StatefulPartitionedCall/sequential_1/keras_layer_1/StatefulPartitionedCall/StatefulPartitionedCall/StatefulPartitionedCall/input/_701"], "device": "/device:CPU:0", "attr": {"explicit_paddings": {"list": {}}, "use_cudnn_on_gpu": {"b": true}, "num_host_args": {"i": "0"}, "epsilon": {"f": 0.0}, "padding": {"s": "U0FNRQ=="}, "fused_ops": {"list": {"s": ["Qmlhc0FkZA==", "UmVsdQ=="]}}, "T": {"type": "DT_FLOAT"}, "leakyrelu_alpha": {"f": 0.2}, "dilations": {"list": {"i": ["1", "1", "1", "1"]}}, "num_args": {"i": "1"}, "data_format": {"s": "TkhXQw=="}, "filter_format": {"s": "SFdJTw=="}, "strides": {"list": {"i": ["1", "1", "1", "1"]}}, "TArgs": {"list": {"type": ["DT_FLOAT"]}}}}, {"name": "StatefulPartitionedCall/sequential_1/keras_layer_1/StatefulPartitionedCall/StatefulPartitionedCall/StatefulPartitionedCall/predict/MobilenetV3/expanded_conv_3/squeeze_excite/Conv_1/BiasAdd", "op": "_FusedConv2D", "input": ["StatefulPartitionedCall/sequential_1/keras_layer_1/StatefulPartitionedCall/StatefulPartitionedCall/StatefulPartitionedCall/predict/MobilenetV3/expanded_conv_3/squeeze_excite/Conv/Relu", "Func/StatefulPartitionedCall/sequential_1/keras_layer_1/StatefulPartitionedCall/StatefulPartitionedCall/StatefulPartitionedCall/input/_702", "Func/StatefulPartitionedCall/sequential_1/keras_layer_1/StatefulPartitionedCall/StatefulPartitionedCall/StatefulPartitionedCall/input/_703"], "device": "/device:CPU:0", "attr": {"TArgs": {"list": {"type": ["DT_FLOAT"]}}, "num_args": {"i": "1"}, "fused_ops": {"list": {"s": ["Qmlhc0FkZA=="]}}, "data_format": {"s": "TkhXQw=="}, "dilations": {"list": {"i": ["1", "1", "1", "1"]}}, "epsilon": {"f": 0.0}, "T": {"type": "DT_FLOAT"}, "padding": {"s": "U0FNRQ=="}, "leakyrelu_alpha": {"f": 0.2}, "strides": {"list": {"i": ["1", "1", "1", "1"]}}, "use_cudnn_on_gpu": {"b": true}, "explicit_paddings": {"list": {}}, "filter_format": {"s": "SFdJTw=="}, "num_host_args": {"i": "0"}}}, {"name": "StatefulPartitionedCall/sequential_1/keras_layer_1/StatefulPartitionedCall/StatefulPartitionedCall/StatefulPartitionedCall/predict/MobilenetV3/expanded_conv_3/squeeze_excite/Conv_1/add", "op": "AddV2", "input": ["StatefulPartitionedCall/sequential_1/keras_layer_1/StatefulPartitionedCall/StatefulPartitionedCall/StatefulPartitionedCall/predict/MobilenetV3/expanded_conv_3/squeeze_excite/Conv_1/BiasAdd", "StatefulPartitionedCall/sequential_1/keras_layer_1/StatefulPartitionedCall/StatefulPartitionedCall/StatefulPartitionedCall/predict/MobilenetV3/expanded_conv_3/squeeze_excite/Conv_1/add/y"], "attr": {"T": {"type": "DT_FLOAT"}}}, {"name": "StatefulPartitionedCall/sequential_1/keras_layer_1/StatefulPartitionedCall/StatefulPartitionedCall/StatefulPartitionedCall/predict/MobilenetV3/expanded_conv_3/squeeze_excite/Conv_1/Relu6", "op": "Relu6", "input": ["StatefulPartitionedCall/sequential_1/keras_layer_1/StatefulPartitionedCall/StatefulPartitionedCall/StatefulPartitionedCall/predict/MobilenetV3/expanded_conv_3/squeeze_excite/Conv_1/add"], "attr": {"T": {"type": "DT_FLOAT"}}}, {"name": "StatefulPartitionedCall/sequential_1/keras_layer_1/StatefulPartitionedCall/StatefulPartitionedCall/StatefulPartitionedCall/predict/MobilenetV3/expanded_conv_3/squeeze_excite/Conv_1/mul", "op": "Mul", "input": ["StatefulPartitionedCall/sequential_1/keras_layer_1/StatefulPartitionedCall/StatefulPartitionedCall/StatefulPartitionedCall/predict/MobilenetV3/expanded_conv_3/squeeze_excite/Conv_1/mul/y", "StatefulPartitionedCall/sequential_1/keras_layer_1/StatefulPartitionedCall/StatefulPartitionedCall/StatefulPartitionedCall/predict/MobilenetV3/expanded_conv_3/squeeze_excite/Conv_1/Relu6"], "attr": {"T": {"type": "DT_FLOAT"}, "_grappler_ArithmeticOptimizer_MinimizeBroadcasts": {"b": true}}}, {"name": "StatefulPartitionedCall/sequential_1/keras_layer_1/StatefulPartitionedCall/StatefulPartitionedCall/StatefulPartitionedCall/predict/MobilenetV3/expanded_conv_3/squeeze_excite/mul", "op": "Mul", "input": ["StatefulPartitionedCall/sequential_1/keras_layer_1/StatefulPartitionedCall/StatefulPartitionedCall/StatefulPartitionedCall/predict/MobilenetV3/expanded_conv_3/squeeze_excite/Conv_1/mul", "StatefulPartitionedCall/sequential_1/keras_layer_1/StatefulPartitionedCall/StatefulPartitionedCall/StatefulPartitionedCall/predict/MobilenetV3/expanded_conv_3/depthwise/hard_swish/mul_1"], "attr": {"T": {"type": "DT_FLOAT"}, "_grappler_ArithmeticOptimizer_MinimizeBroadcasts": {"b": true}}}, {"name": "StatefulPartitionedCall/sequential_1/keras_layer_1/StatefulPartitionedCall/StatefulPartitionedCall/StatefulPartitionedCall/predict/MobilenetV3/expanded_conv_3/project/BatchNorm/FusedBatchNormV3", "op": "_FusedConv2D", "input": ["StatefulPartitionedCall/sequential_1/keras_layer_1/StatefulPartitionedCall/StatefulPartitionedCall/StatefulPartitionedCall/predict/MobilenetV3/expanded_conv_3/squeeze_excite/mul", "StatefulPartitionedCall/sequential_1/keras_layer_1/StatefulPartitionedCall/StatefulPartitionedCall/StatefulPartitionedCall/predict/MobilenetV3/expanded_conv_3/project/Conv2D_weights", "StatefulPartitionedCall/sequential_1/keras_layer_1/StatefulPartitionedCall/StatefulPartitionedCall/StatefulPartitionedCall/predict/MobilenetV3/expanded_conv_3/project/Conv2D_bn_offset"], "device": "/device:CPU:0", "attr": {"num_args": {"i": "1"}, "strides": {"list": {"i": ["1", "1", "1", "1"]}}, "filter_format": {"s": "SFdJTw=="}, "explicit_paddings": {"list": {}}, "epsilon": {"f": 0.0}, "leakyrelu_alpha": {"f": 0.2}, "TArgs": {"list": {"type": ["DT_FLOAT"]}}, "dilations": {"list": {"i": ["1", "1", "1", "1"]}}, "T": {"type": "DT_FLOAT"}, "use_cudnn_on_gpu": {"b": true}, "fused_ops": {"list": {"s": ["Qmlhc0FkZA=="]}}, "num_host_args": {"i": "0"}, "padding": {"s": "U0FNRQ=="}, "data_format": {"s": "TkhXQw=="}}}, {"name": "StatefulPartitionedCall/sequential_1/keras_layer_1/StatefulPartitionedCall/StatefulPartitionedCall/StatefulPartitionedCall/predict/MobilenetV3/expanded_conv_4/expand/BatchNorm/FusedBatchNormV3", "op": "_FusedConv2D", "input": ["StatefulPartitionedCall/sequential_1/keras_layer_1/StatefulPartitionedCall/StatefulPartitionedCall/StatefulPartitionedCall/predict/MobilenetV3/expanded_conv_3/project/BatchNorm/FusedBatchNormV3", "StatefulPartitionedCall/sequential_1/keras_layer_1/StatefulPartitionedCall/StatefulPartitionedCall/StatefulPartitionedCall/predict/MobilenetV3/expanded_conv_4/expand/Conv2D_weights", "StatefulPartitionedCall/sequential_1/keras_layer_1/StatefulPartitionedCall/StatefulPartitionedCall/StatefulPartitionedCall/predict/MobilenetV3/expanded_conv_4/expand/Conv2D_bn_offset"], "device": "/device:CPU:0", "attr": {"TArgs": {"list": {"type": ["DT_FLOAT"]}}, "dilations": {"list": {"i": ["1", "1", "1", "1"]}}, "T": {"type": "DT_FLOAT"}, "data_format": {"s": "TkhXQw=="}, "padding": {"s": "U0FNRQ=="}, "explicit_paddings": {"list": {}}, "num_args": {"i": "1"}, "strides": {"list": {"i": ["1", "1", "1", "1"]}}, "fused_ops": {"list": {"s": ["Qmlhc0FkZA=="]}}, "leakyrelu_alpha": {"f": 0.2}, "num_host_args": {"i": "0"}, "use_cudnn_on_gpu": {"b": true}, "epsilon": {"f": 0.0}, "filter_format": {"s": "SFdJTw=="}}}, {"name": "StatefulPartitionedCall/sequential_1/keras_layer_1/StatefulPartitionedCall/StatefulPartitionedCall/StatefulPartitionedCall/predict/MobilenetV3/expanded_conv_4/expand/hard_swish/mul", "op": "Mul", "input": ["StatefulPartitionedCall/sequential_1/keras_layer_1/StatefulPartitionedCall/StatefulPartitionedCall/StatefulPartitionedCall/predict/MobilenetV3/expanded_conv_4/expand/hard_swish/mul_1/y", "StatefulPartitionedCall/sequential_1/keras_layer_1/StatefulPartitionedCall/StatefulPartitionedCall/StatefulPartitionedCall/predict/MobilenetV3/expanded_conv_4/expand/BatchNorm/FusedBatchNormV3"], "attr": {"_grappler_ArithmeticOptimizer_MinimizeBroadcasts": {"b": true}, "T": {"type": "DT_FLOAT"}}}, {"name": "StatefulPartitionedCall/sequential_1/keras_layer_1/StatefulPartitionedCall/StatefulPartitionedCall/StatefulPartitionedCall/predict/MobilenetV3/expanded_conv_4/expand/hard_swish/add", "op": "AddV2", "input": ["StatefulPartitionedCall/sequential_1/keras_layer_1/StatefulPartitionedCall/StatefulPartitionedCall/StatefulPartitionedCall/predict/MobilenetV3/expanded_conv_4/expand/BatchNorm/FusedBatchNormV3", "StatefulPartitionedCall/sequential_1/keras_layer_1/StatefulPartitionedCall/StatefulPartitionedCall/StatefulPartitionedCall/predict/MobilenetV3/expanded_conv_4/expand/hard_swish/add/y"], "attr": {"T": {"type": "DT_FLOAT"}}}, {"name": "StatefulPartitionedCall/sequential_1/keras_layer_1/StatefulPartitionedCall/StatefulPartitionedCall/StatefulPartitionedCall/predict/MobilenetV3/expanded_conv_4/expand/hard_swish/Relu6", "op": "Relu6", "input": ["StatefulPartitionedCall/sequential_1/keras_layer_1/StatefulPartitionedCall/StatefulPartitionedCall/StatefulPartitionedCall/predict/MobilenetV3/expanded_conv_4/expand/hard_swish/add"], "attr": {"T": {"type": "DT_FLOAT"}}}, {"name": "StatefulPartitionedCall/sequential_1/keras_layer_1/StatefulPartitionedCall/StatefulPartitionedCall/StatefulPartitionedCall/predict/MobilenetV3/expanded_conv_4/expand/hard_swish/mul_1", "op": "Mul", "input": ["StatefulPartitionedCall/sequential_1/keras_layer_1/StatefulPartitionedCall/StatefulPartitionedCall/StatefulPartitionedCall/predict/MobilenetV3/expanded_conv_4/expand/hard_swish/mul", "StatefulPartitionedCall/sequential_1/keras_layer_1/StatefulPartitionedCall/StatefulPartitionedCall/StatefulPartitionedCall/predict/MobilenetV3/expanded_conv_4/expand/hard_swish/Relu6"], "attr": {"T": {"type": "DT_FLOAT"}, "_grappler_ArithmeticOptimizer_MinimizeBroadcasts": {"b": true}}}, {"name": "StatefulPartitionedCall/sequential_1/keras_layer_1/StatefulPartitionedCall/StatefulPartitionedCall/StatefulPartitionedCall/predict/MobilenetV3/expanded_conv_4/depthwise/depthwise", "op": "FusedDepthwiseConv2dNative", "input": ["StatefulPartitionedCall/sequential_1/keras_layer_1/StatefulPartitionedCall/StatefulPartitionedCall/StatefulPartitionedCall/predict/MobilenetV3/expanded_conv_4/expand/hard_swish/mul_1", "StatefulPartitionedCall/sequential_1/keras_layer_1/StatefulPartitionedCall/StatefulPartitionedCall/StatefulPartitionedCall/predict/MobilenetV3/expanded_conv_4/depthwise/depthwise_weights", "StatefulPartitionedCall/sequential_1/keras_layer_1/StatefulPartitionedCall/StatefulPartitionedCall/StatefulPartitionedCall/predict/MobilenetV3/expanded_conv_4/depthwise/depthwise_bn_offset"], "attr": {"data_format": {"s": "TkhXQw=="}, "num_args": {"i": "1"}, "explicit_paddings": {"list": {}}, "fused_ops": {"list": {"s": ["Qmlhc0FkZA=="]}}, "dilations": {"list": {"i": ["1", "1", "1", "1"]}}, "padding": {"s": "U0FNRQ=="}, "strides": {"list": {"i": ["1", "1", "1", "1"]}}, "T": {"type": "DT_FLOAT"}}}, {"name": "StatefulPartitionedCall/sequential_1/keras_layer_1/StatefulPartitionedCall/StatefulPartitionedCall/StatefulPartitionedCall/predict/MobilenetV3/expanded_conv_4/depthwise/hard_swish/mul", "op": "Mul", "input": ["StatefulPartitionedCall/sequential_1/keras_layer_1/StatefulPartitionedCall/StatefulPartitionedCall/StatefulPartitionedCall/predict/MobilenetV3/expanded_conv_4/depthwise/hard_swish/mul_1/y", "StatefulPartitionedCall/sequential_1/keras_layer_1/StatefulPartitionedCall/StatefulPartitionedCall/StatefulPartitionedCall/predict/MobilenetV3/expanded_conv_4/depthwise/depthwise"], "attr": {"_grappler_ArithmeticOptimizer_MinimizeBroadcasts": {"b": true}, "T": {"type": "DT_FLOAT"}}}, {"name": "StatefulPartitionedCall/sequential_1/keras_layer_1/StatefulPartitionedCall/StatefulPartitionedCall/StatefulPartitionedCall/predict/MobilenetV3/expanded_conv_4/depthwise/hard_swish/add", "op": "AddV2", "input": ["StatefulPartitionedCall/sequential_1/keras_layer_1/StatefulPartitionedCall/StatefulPartitionedCall/StatefulPartitionedCall/predict/MobilenetV3/expanded_conv_4/depthwise/depthwise", "StatefulPartitionedCall/sequential_1/keras_layer_1/StatefulPartitionedCall/StatefulPartitionedCall/StatefulPartitionedCall/predict/MobilenetV3/expanded_conv_4/depthwise/hard_swish/add/y"], "attr": {"T": {"type": "DT_FLOAT"}}}, {"name": "StatefulPartitionedCall/sequential_1/keras_layer_1/StatefulPartitionedCall/StatefulPartitionedCall/StatefulPartitionedCall/predict/MobilenetV3/expanded_conv_4/depthwise/hard_swish/Relu6", "op": "Relu6", "input": ["StatefulPartitionedCall/sequential_1/keras_layer_1/StatefulPartitionedCall/StatefulPartitionedCall/StatefulPartitionedCall/predict/MobilenetV3/expanded_conv_4/depthwise/hard_swish/add"], "attr": {"T": {"type": "DT_FLOAT"}}}, {"name": "StatefulPartitionedCall/sequential_1/keras_layer_1/StatefulPartitionedCall/StatefulPartitionedCall/StatefulPartitionedCall/predict/MobilenetV3/expanded_conv_4/depthwise/hard_swish/mul_1", "op": "Mul", "input": ["StatefulPartitionedCall/sequential_1/keras_layer_1/StatefulPartitionedCall/StatefulPartitionedCall/StatefulPartitionedCall/predict/MobilenetV3/expanded_conv_4/depthwise/hard_swish/mul", "StatefulPartitionedCall/sequential_1/keras_layer_1/StatefulPartitionedCall/StatefulPartitionedCall/StatefulPartitionedCall/predict/MobilenetV3/expanded_conv_4/depthwise/hard_swish/Relu6"], "attr": {"_grappler_ArithmeticOptimizer_MinimizeBroadcasts": {"b": true}, "T": {"type": "DT_FLOAT"}}}, {"name": "StatefulPartitionedCall/sequential_1/keras_layer_1/StatefulPartitionedCall/StatefulPartitionedCall/StatefulPartitionedCall/predict/MobilenetV3/expanded_conv_4/squeeze_excite/Mean", "op": "Mean", "input": ["StatefulPartitionedCall/sequential_1/keras_layer_1/StatefulPartitionedCall/StatefulPartitionedCall/StatefulPartitionedCall/predict/MobilenetV3/expanded_conv_4/depthwise/hard_swish/mul_1", "StatefulPartitionedCall/sequential_1/keras_layer_1/StatefulPartitionedCall/StatefulPartitionedCall/StatefulPartitionedCall/predict/MobilenetV3/expanded_conv_4/squeeze_excite/Mean/reduction_indices"], "attr": {"Tidx": {"type": "DT_INT32"}, "keep_dims": {"b": true}, "T": {"type": "DT_FLOAT"}}}, {"name": "StatefulPartitionedCall/sequential_1/keras_layer_1/StatefulPartitionedCall/StatefulPartitionedCall/StatefulPartitionedCall/predict/MobilenetV3/expanded_conv_4/squeeze_excite/Conv/Relu", "op": "_FusedConv2D", "input": ["StatefulPartitionedCall/sequential_1/keras_layer_1/StatefulPartitionedCall/StatefulPartitionedCall/StatefulPartitionedCall/predict/MobilenetV3/expanded_conv_4/squeeze_excite/Mean", "Func/StatefulPartitionedCall/sequential_1/keras_layer_1/StatefulPartitionedCall/StatefulPartitionedCall/StatefulPartitionedCall/input/_719", "Func/StatefulPartitionedCall/sequential_1/keras_layer_1/StatefulPartitionedCall/StatefulPartitionedCall/StatefulPartitionedCall/input/_720"], "device": "/device:CPU:0", "attr": {"use_cudnn_on_gpu": {"b": true}, "num_args": {"i": "1"}, "explicit_paddings": {"list": {}}, "T": {"type": "DT_FLOAT"}, "data_format": {"s": "TkhXQw=="}, "padding": {"s": "U0FNRQ=="}, "num_host_args": {"i": "0"}, "strides": {"list": {"i": ["1", "1", "1", "1"]}}, "filter_format": {"s": "SFdJTw=="}, "fused_ops": {"list": {"s": ["Qmlhc0FkZA==", "UmVsdQ=="]}}, "epsilon": {"f": 0.0}, "dilations": {"list": {"i": ["1", "1", "1", "1"]}}, "leakyrelu_alpha": {"f": 0.2}, "TArgs": {"list": {"type": ["DT_FLOAT"]}}}}, {"name": "StatefulPartitionedCall/sequential_1/keras_layer_1/StatefulPartitionedCall/StatefulPartitionedCall/StatefulPartitionedCall/predict/MobilenetV3/expanded_conv_4/squeeze_excite/Conv_1/BiasAdd", "op": "_FusedConv2D", "input": ["StatefulPartitionedCall/sequential_1/keras_layer_1/StatefulPartitionedCall/StatefulPartitionedCall/StatefulPartitionedCall/predict/MobilenetV3/expanded_conv_4/squeeze_excite/Conv/Relu", "Func/StatefulPartitionedCall/sequential_1/keras_layer_1/StatefulPartitionedCall/StatefulPartitionedCall/StatefulPartitionedCall/input/_721", "Func/StatefulPartitionedCall/sequential_1/keras_layer_1/StatefulPartitionedCall/StatefulPartitionedCall/StatefulPartitionedCall/input/_722"], "device": "/device:CPU:0", "attr": {"epsilon": {"f": 0.0}, "strides": {"list": {"i": ["1", "1", "1", "1"]}}, "num_host_args": {"i": "0"}, "fused_ops": {"list": {"s": ["Qmlhc0FkZA=="]}}, "padding": {"s": "U0FNRQ=="}, "TArgs": {"list": {"type": ["DT_FLOAT"]}}, "use_cudnn_on_gpu": {"b": true}, "filter_format": {"s": "SFdJTw=="}, "explicit_paddings": {"list": {}}, "num_args": {"i": "1"}, "data_format": {"s": "TkhXQw=="}, "T": {"type": "DT_FLOAT"}, "dilations": {"list": {"i": ["1", "1", "1", "1"]}}, "leakyrelu_alpha": {"f": 0.2}}}, {"name": "StatefulPartitionedCall/sequential_1/keras_layer_1/StatefulPartitionedCall/StatefulPartitionedCall/StatefulPartitionedCall/predict/MobilenetV3/expanded_conv_4/squeeze_excite/Conv_1/add", "op": "AddV2", "input": ["StatefulPartitionedCall/sequential_1/keras_layer_1/StatefulPartitionedCall/StatefulPartitionedCall/StatefulPartitionedCall/predict/MobilenetV3/expanded_conv_4/squeeze_excite/Conv_1/BiasAdd", "StatefulPartitionedCall/sequential_1/keras_layer_1/StatefulPartitionedCall/StatefulPartitionedCall/StatefulPartitionedCall/predict/MobilenetV3/expanded_conv_4/squeeze_excite/Conv_1/add/y"], "attr": {"T": {"type": "DT_FLOAT"}}}, {"name": "StatefulPartitionedCall/sequential_1/keras_layer_1/StatefulPartitionedCall/StatefulPartitionedCall/StatefulPartitionedCall/predict/MobilenetV3/expanded_conv_4/squeeze_excite/Conv_1/Relu6", "op": "Relu6", "input": ["StatefulPartitionedCall/sequential_1/keras_layer_1/StatefulPartitionedCall/StatefulPartitionedCall/StatefulPartitionedCall/predict/MobilenetV3/expanded_conv_4/squeeze_excite/Conv_1/add"], "attr": {"T": {"type": "DT_FLOAT"}}}, {"name": "StatefulPartitionedCall/sequential_1/keras_layer_1/StatefulPartitionedCall/StatefulPartitionedCall/StatefulPartitionedCall/predict/MobilenetV3/expanded_conv_4/squeeze_excite/Conv_1/mul", "op": "Mul", "input": ["StatefulPartitionedCall/sequential_1/keras_layer_1/StatefulPartitionedCall/StatefulPartitionedCall/StatefulPartitionedCall/predict/MobilenetV3/expanded_conv_4/squeeze_excite/Conv_1/mul/y", "StatefulPartitionedCall/sequential_1/keras_layer_1/StatefulPartitionedCall/StatefulPartitionedCall/StatefulPartitionedCall/predict/MobilenetV3/expanded_conv_4/squeeze_excite/Conv_1/Relu6"], "attr": {"_grappler_ArithmeticOptimizer_MinimizeBroadcasts": {"b": true}, "T": {"type": "DT_FLOAT"}}}, {"name": "StatefulPartitionedCall/sequential_1/keras_layer_1/StatefulPartitionedCall/StatefulPartitionedCall/StatefulPartitionedCall/predict/MobilenetV3/expanded_conv_4/squeeze_excite/mul", "op": "Mul", "input": ["StatefulPartitionedCall/sequential_1/keras_layer_1/StatefulPartitionedCall/StatefulPartitionedCall/StatefulPartitionedCall/predict/MobilenetV3/expanded_conv_4/squeeze_excite/Conv_1/mul", "StatefulPartitionedCall/sequential_1/keras_layer_1/StatefulPartitionedCall/StatefulPartitionedCall/StatefulPartitionedCall/predict/MobilenetV3/expanded_conv_4/depthwise/hard_swish/mul_1"], "attr": {"T": {"type": "DT_FLOAT"}, "_grappler_ArithmeticOptimizer_MinimizeBroadcasts": {"b": true}}}, {"name": "StatefulPartitionedCall/sequential_1/keras_layer_1/StatefulPartitionedCall/StatefulPartitionedCall/StatefulPartitionedCall/predict/MobilenetV3/expanded_conv_4/project/BatchNorm/FusedBatchNormV3", "op": "_FusedConv2D", "input": ["StatefulPartitionedCall/sequential_1/keras_layer_1/StatefulPartitionedCall/StatefulPartitionedCall/StatefulPartitionedCall/predict/MobilenetV3/expanded_conv_4/squeeze_excite/mul", "StatefulPartitionedCall/sequential_1/keras_layer_1/StatefulPartitionedCall/StatefulPartitionedCall/StatefulPartitionedCall/predict/MobilenetV3/expanded_conv_4/project/Conv2D_weights", "StatefulPartitionedCall/sequential_1/keras_layer_1/StatefulPartitionedCall/StatefulPartitionedCall/StatefulPartitionedCall/predict/MobilenetV3/expanded_conv_4/project/Conv2D_bn_offset"], "device": "/device:CPU:0", "attr": {"fused_ops": {"list": {"s": ["Qmlhc0FkZA=="]}}, "T": {"type": "DT_FLOAT"}, "dilations": {"list": {"i": ["1", "1", "1", "1"]}}, "TArgs": {"list": {"type": ["DT_FLOAT"]}}, "use_cudnn_on_gpu": {"b": true}, "explicit_paddings": {"list": {}}, "leakyrelu_alpha": {"f": 0.2}, "epsilon": {"f": 0.0}, "num_args": {"i": "1"}, "data_format": {"s": "TkhXQw=="}, "strides": {"list": {"i": ["1", "1", "1", "1"]}}, "num_host_args": {"i": "0"}, "padding": {"s": "U0FNRQ=="}, "filter_format": {"s": "SFdJTw=="}}}, {"name": "StatefulPartitionedCall/sequential_1/keras_layer_1/StatefulPartitionedCall/StatefulPartitionedCall/StatefulPartitionedCall/predict/MobilenetV3/expanded_conv_4/add", "op": "AddV2", "input": ["StatefulPartitionedCall/sequential_1/keras_layer_1/StatefulPartitionedCall/StatefulPartitionedCall/StatefulPartitionedCall/predict/MobilenetV3/expanded_conv_4/project/BatchNorm/FusedBatchNormV3", "StatefulPartitionedCall/sequential_1/keras_layer_1/StatefulPartitionedCall/StatefulPartitionedCall/StatefulPartitionedCall/predict/MobilenetV3/expanded_conv_3/project/BatchNorm/FusedBatchNormV3"], "attr": {"T": {"type": "DT_FLOAT"}}}, {"name": "StatefulPartitionedCall/sequential_1/keras_layer_1/StatefulPartitionedCall/StatefulPartitionedCall/StatefulPartitionedCall/predict/MobilenetV3/expanded_conv_5/expand/BatchNorm/FusedBatchNormV3", "op": "_FusedConv2D", "input": ["StatefulPartitionedCall/sequential_1/keras_layer_1/StatefulPartitionedCall/StatefulPartitionedCall/StatefulPartitionedCall/predict/MobilenetV3/expanded_conv_4/add", "StatefulPartitionedCall/sequential_1/keras_layer_1/StatefulPartitionedCall/StatefulPartitionedCall/StatefulPartitionedCall/predict/MobilenetV3/expanded_conv_5/expand/Conv2D_weights", "StatefulPartitionedCall/sequential_1/keras_layer_1/StatefulPartitionedCall/StatefulPartitionedCall/StatefulPartitionedCall/predict/MobilenetV3/expanded_conv_5/expand/Conv2D_bn_offset"], "device": "/device:CPU:0", "attr": {"fused_ops": {"list": {"s": ["Qmlhc0FkZA=="]}}, "T": {"type": "DT_FLOAT"}, "num_args": {"i": "1"}, "leakyrelu_alpha": {"f": 0.2}, "dilations": {"list": {"i": ["1", "1", "1", "1"]}}, "strides": {"list": {"i": ["1", "1", "1", "1"]}}, "data_format": {"s": "TkhXQw=="}, "num_host_args": {"i": "0"}, "filter_format": {"s": "SFdJTw=="}, "TArgs": {"list": {"type": ["DT_FLOAT"]}}, "epsilon": {"f": 0.0}, "use_cudnn_on_gpu": {"b": true}, "padding": {"s": "U0FNRQ=="}, "explicit_paddings": {"list": {}}}}, {"name": "StatefulPartitionedCall/sequential_1/keras_layer_1/StatefulPartitionedCall/StatefulPartitionedCall/StatefulPartitionedCall/predict/MobilenetV3/expanded_conv_5/expand/hard_swish/mul", "op": "Mul", "input": ["StatefulPartitionedCall/sequential_1/keras_layer_1/StatefulPartitionedCall/StatefulPartitionedCall/StatefulPartitionedCall/predict/MobilenetV3/expanded_conv_5/expand/hard_swish/mul_1/y", "StatefulPartitionedCall/sequential_1/keras_layer_1/StatefulPartitionedCall/StatefulPartitionedCall/StatefulPartitionedCall/predict/MobilenetV3/expanded_conv_5/expand/BatchNorm/FusedBatchNormV3"], "attr": {"T": {"type": "DT_FLOAT"}, "_grappler_ArithmeticOptimizer_MinimizeBroadcasts": {"b": true}}}, {"name": "StatefulPartitionedCall/sequential_1/keras_layer_1/StatefulPartitionedCall/StatefulPartitionedCall/StatefulPartitionedCall/predict/MobilenetV3/expanded_conv_5/expand/hard_swish/add", "op": "AddV2", "input": ["StatefulPartitionedCall/sequential_1/keras_layer_1/StatefulPartitionedCall/StatefulPartitionedCall/StatefulPartitionedCall/predict/MobilenetV3/expanded_conv_5/expand/BatchNorm/FusedBatchNormV3", "StatefulPartitionedCall/sequential_1/keras_layer_1/StatefulPartitionedCall/StatefulPartitionedCall/StatefulPartitionedCall/predict/MobilenetV3/expanded_conv_5/expand/hard_swish/add/y"], "attr": {"T": {"type": "DT_FLOAT"}}}, {"name": "StatefulPartitionedCall/sequential_1/keras_layer_1/StatefulPartitionedCall/StatefulPartitionedCall/StatefulPartitionedCall/predict/MobilenetV3/expanded_conv_5/expand/hard_swish/Relu6", "op": "Relu6", "input": ["StatefulPartitionedCall/sequential_1/keras_layer_1/StatefulPartitionedCall/StatefulPartitionedCall/StatefulPartitionedCall/predict/MobilenetV3/expanded_conv_5/expand/hard_swish/add"], "attr": {"T": {"type": "DT_FLOAT"}}}, {"name": "StatefulPartitionedCall/sequential_1/keras_layer_1/StatefulPartitionedCall/StatefulPartitionedCall/StatefulPartitionedCall/predict/MobilenetV3/expanded_conv_5/expand/hard_swish/mul_1", "op": "Mul", "input": ["StatefulPartitionedCall/sequential_1/keras_layer_1/StatefulPartitionedCall/StatefulPartitionedCall/StatefulPartitionedCall/predict/MobilenetV3/expanded_conv_5/expand/hard_swish/mul", "StatefulPartitionedCall/sequential_1/keras_layer_1/StatefulPartitionedCall/StatefulPartitionedCall/StatefulPartitionedCall/predict/MobilenetV3/expanded_conv_5/expand/hard_swish/Relu6"], "attr": {"_grappler_ArithmeticOptimizer_MinimizeBroadcasts": {"b": true}, "T": {"type": "DT_FLOAT"}}}, {"name": "StatefulPartitionedCall/sequential_1/keras_layer_1/StatefulPartitionedCall/StatefulPartitionedCall/StatefulPartitionedCall/predict/MobilenetV3/expanded_conv_5/depthwise/depthwise", "op": "FusedDepthwiseConv2dNative", "input": ["StatefulPartitionedCall/sequential_1/keras_layer_1/StatefulPartitionedCall/StatefulPartitionedCall/StatefulPartitionedCall/predict/MobilenetV3/expanded_conv_5/expand/hard_swish/mul_1", "StatefulPartitionedCall/sequential_1/keras_layer_1/StatefulPartitionedCall/StatefulPartitionedCall/StatefulPartitionedCall/predict/MobilenetV3/expanded_conv_5/depthwise/depthwise_weights", "StatefulPartitionedCall/sequential_1/keras_layer_1/StatefulPartitionedCall/StatefulPartitionedCall/StatefulPartitionedCall/predict/MobilenetV3/expanded_conv_5/depthwise/depthwise_bn_offset"], "attr": {"num_args": {"i": "1"}, "data_format": {"s": "TkhXQw=="}, "explicit_paddings": {"list": {}}, "padding": {"s": "U0FNRQ=="}, "fused_ops": {"list": {"s": ["Qmlhc0FkZA=="]}}, "strides": {"list": {"i": ["1", "1", "1", "1"]}}, "dilations": {"list": {"i": ["1", "1", "1", "1"]}}, "T": {"type": "DT_FLOAT"}}}, {"name": "StatefulPartitionedCall/sequential_1/keras_layer_1/StatefulPartitionedCall/StatefulPartitionedCall/StatefulPartitionedCall/predict/MobilenetV3/expanded_conv_5/depthwise/hard_swish/mul", "op": "Mul", "input": ["StatefulPartitionedCall/sequential_1/keras_layer_1/StatefulPartitionedCall/StatefulPartitionedCall/StatefulPartitionedCall/predict/MobilenetV3/expanded_conv_5/depthwise/hard_swish/mul_1/y", "StatefulPartitionedCall/sequential_1/keras_layer_1/StatefulPartitionedCall/StatefulPartitionedCall/StatefulPartitionedCall/predict/MobilenetV3/expanded_conv_5/depthwise/depthwise"], "attr": {"_grappler_ArithmeticOptimizer_MinimizeBroadcasts": {"b": true}, "T": {"type": "DT_FLOAT"}}}, {"name": "StatefulPartitionedCall/sequential_1/keras_layer_1/StatefulPartitionedCall/StatefulPartitionedCall/StatefulPartitionedCall/predict/MobilenetV3/expanded_conv_5/depthwise/hard_swish/add", "op": "AddV2", "input": ["StatefulPartitionedCall/sequential_1/keras_layer_1/StatefulPartitionedCall/StatefulPartitionedCall/StatefulPartitionedCall/predict/MobilenetV3/expanded_conv_5/depthwise/depthwise", "StatefulPartitionedCall/sequential_1/keras_layer_1/StatefulPartitionedCall/StatefulPartitionedCall/StatefulPartitionedCall/predict/MobilenetV3/expanded_conv_5/depthwise/hard_swish/add/y"], "attr": {"T": {"type": "DT_FLOAT"}}}, {"name": "StatefulPartitionedCall/sequential_1/keras_layer_1/StatefulPartitionedCall/StatefulPartitionedCall/StatefulPartitionedCall/predict/MobilenetV3/expanded_conv_5/depthwise/hard_swish/Relu6", "op": "Relu6", "input": ["StatefulPartitionedCall/sequential_1/keras_layer_1/StatefulPartitionedCall/StatefulPartitionedCall/StatefulPartitionedCall/predict/MobilenetV3/expanded_conv_5/depthwise/hard_swish/add"], "attr": {"T": {"type": "DT_FLOAT"}}}, {"name": "StatefulPartitionedCall/sequential_1/keras_layer_1/StatefulPartitionedCall/StatefulPartitionedCall/StatefulPartitionedCall/predict/MobilenetV3/expanded_conv_5/depthwise/hard_swish/mul_1", "op": "Mul", "input": ["StatefulPartitionedCall/sequential_1/keras_layer_1/StatefulPartitionedCall/StatefulPartitionedCall/StatefulPartitionedCall/predict/MobilenetV3/expanded_conv_5/depthwise/hard_swish/mul", "StatefulPartitionedCall/sequential_1/keras_layer_1/StatefulPartitionedCall/StatefulPartitionedCall/StatefulPartitionedCall/predict/MobilenetV3/expanded_conv_5/depthwise/hard_swish/Relu6"], "attr": {"_grappler_ArithmeticOptimizer_MinimizeBroadcasts": {"b": true}, "T": {"type": "DT_FLOAT"}}}, {"name": "StatefulPartitionedCall/sequential_1/keras_layer_1/StatefulPartitionedCall/StatefulPartitionedCall/StatefulPartitionedCall/predict/MobilenetV3/expanded_conv_5/squeeze_excite/Mean", "op": "Mean", "input": ["StatefulPartitionedCall/sequential_1/keras_layer_1/StatefulPartitionedCall/StatefulPartitionedCall/StatefulPartitionedCall/predict/MobilenetV3/expanded_conv_5/depthwise/hard_swish/mul_1", "StatefulPartitionedCall/sequential_1/keras_layer_1/StatefulPartitionedCall/StatefulPartitionedCall/StatefulPartitionedCall/predict/MobilenetV3/expanded_conv_5/squeeze_excite/Mean/reduction_indices"], "attr": {"keep_dims": {"b": true}, "Tidx": {"type": "DT_INT32"}, "T": {"type": "DT_FLOAT"}}}, {"name": "StatefulPartitionedCall/sequential_1/keras_layer_1/StatefulPartitionedCall/StatefulPartitionedCall/StatefulPartitionedCall/predict/MobilenetV3/expanded_conv_5/squeeze_excite/Conv/Relu", "op": "_FusedConv2D", "input": ["StatefulPartitionedCall/sequential_1/keras_layer_1/StatefulPartitionedCall/StatefulPartitionedCall/StatefulPartitionedCall/predict/MobilenetV3/expanded_conv_5/squeeze_excite/Mean", "Func/StatefulPartitionedCall/sequential_1/keras_layer_1/StatefulPartitionedCall/StatefulPartitionedCall/StatefulPartitionedCall/input/_738", "Func/StatefulPartitionedCall/sequential_1/keras_layer_1/StatefulPartitionedCall/StatefulPartitionedCall/StatefulPartitionedCall/input/_739"], "device": "/device:CPU:0", "attr": {"strides": {"list": {"i": ["1", "1", "1", "1"]}}, "epsilon": {"f": 0.0}, "leakyrelu_alpha": {"f": 0.2}, "TArgs": {"list": {"type": ["DT_FLOAT"]}}, "T": {"type": "DT_FLOAT"}, "data_format": {"s": "TkhXQw=="}, "use_cudnn_on_gpu": {"b": true}, "padding": {"s": "U0FNRQ=="}, "num_args": {"i": "1"}, "filter_format": {"s": "SFdJTw=="}, "num_host_args": {"i": "0"}, "dilations": {"list": {"i": ["1", "1", "1", "1"]}}, "explicit_paddings": {"list": {}}, "fused_ops": {"list": {"s": ["Qmlhc0FkZA==", "UmVsdQ=="]}}}}, {"name": "StatefulPartitionedCall/sequential_1/keras_layer_1/StatefulPartitionedCall/StatefulPartitionedCall/StatefulPartitionedCall/predict/MobilenetV3/expanded_conv_5/squeeze_excite/Conv_1/BiasAdd", "op": "_FusedConv2D", "input": ["StatefulPartitionedCall/sequential_1/keras_layer_1/StatefulPartitionedCall/StatefulPartitionedCall/StatefulPartitionedCall/predict/MobilenetV3/expanded_conv_5/squeeze_excite/Conv/Relu", "Func/StatefulPartitionedCall/sequential_1/keras_layer_1/StatefulPartitionedCall/StatefulPartitionedCall/StatefulPartitionedCall/input/_740", "Func/StatefulPartitionedCall/sequential_1/keras_layer_1/StatefulPartitionedCall/StatefulPartitionedCall/StatefulPartitionedCall/input/_741"], "device": "/device:CPU:0", "attr": {"use_cudnn_on_gpu": {"b": true}, "explicit_paddings": {"list": {}}, "filter_format": {"s": "SFdJTw=="}, "fused_ops": {"list": {"s": ["Qmlhc0FkZA=="]}}, "epsilon": {"f": 0.0}, "num_host_args": {"i": "0"}, "dilations": {"list": {"i": ["1", "1", "1", "1"]}}, "strides": {"list": {"i": ["1", "1", "1", "1"]}}, "num_args": {"i": "1"}, "T": {"type": "DT_FLOAT"}, "TArgs": {"list": {"type": ["DT_FLOAT"]}}, "leakyrelu_alpha": {"f": 0.2}, "data_format": {"s": "TkhXQw=="}, "padding": {"s": "U0FNRQ=="}}}, {"name": "StatefulPartitionedCall/sequential_1/keras_layer_1/StatefulPartitionedCall/StatefulPartitionedCall/StatefulPartitionedCall/predict/MobilenetV3/expanded_conv_5/squeeze_excite/Conv_1/add", "op": "AddV2", "input": ["StatefulPartitionedCall/sequential_1/keras_layer_1/StatefulPartitionedCall/StatefulPartitionedCall/StatefulPartitionedCall/predict/MobilenetV3/expanded_conv_5/squeeze_excite/Conv_1/BiasAdd", "StatefulPartitionedCall/sequential_1/keras_layer_1/StatefulPartitionedCall/StatefulPartitionedCall/StatefulPartitionedCall/predict/MobilenetV3/expanded_conv_5/squeeze_excite/Conv_1/add/y"], "attr": {"T": {"type": "DT_FLOAT"}}}, {"name": "StatefulPartitionedCall/sequential_1/keras_layer_1/StatefulPartitionedCall/StatefulPartitionedCall/StatefulPartitionedCall/predict/MobilenetV3/expanded_conv_5/squeeze_excite/Conv_1/Relu6", "op": "Relu6", "input": ["StatefulPartitionedCall/sequential_1/keras_layer_1/StatefulPartitionedCall/StatefulPartitionedCall/StatefulPartitionedCall/predict/MobilenetV3/expanded_conv_5/squeeze_excite/Conv_1/add"], "attr": {"T": {"type": "DT_FLOAT"}}}, {"name": "StatefulPartitionedCall/sequential_1/keras_layer_1/StatefulPartitionedCall/StatefulPartitionedCall/StatefulPartitionedCall/predict/MobilenetV3/expanded_conv_5/squeeze_excite/Conv_1/mul", "op": "Mul", "input": ["StatefulPartitionedCall/sequential_1/keras_layer_1/StatefulPartitionedCall/StatefulPartitionedCall/StatefulPartitionedCall/predict/MobilenetV3/expanded_conv_5/squeeze_excite/Conv_1/mul/y", "StatefulPartitionedCall/sequential_1/keras_layer_1/StatefulPartitionedCall/StatefulPartitionedCall/StatefulPartitionedCall/predict/MobilenetV3/expanded_conv_5/squeeze_excite/Conv_1/Relu6"], "attr": {"_grappler_ArithmeticOptimizer_MinimizeBroadcasts": {"b": true}, "T": {"type": "DT_FLOAT"}}}, {"name": "StatefulPartitionedCall/sequential_1/keras_layer_1/StatefulPartitionedCall/StatefulPartitionedCall/StatefulPartitionedCall/predict/MobilenetV3/expanded_conv_5/squeeze_excite/mul", "op": "Mul", "input": ["StatefulPartitionedCall/sequential_1/keras_layer_1/StatefulPartitionedCall/StatefulPartitionedCall/StatefulPartitionedCall/predict/MobilenetV3/expanded_conv_5/squeeze_excite/Conv_1/mul", "StatefulPartitionedCall/sequential_1/keras_layer_1/StatefulPartitionedCall/StatefulPartitionedCall/StatefulPartitionedCall/predict/MobilenetV3/expanded_conv_5/depthwise/hard_swish/mul_1"], "attr": {"T": {"type": "DT_FLOAT"}, "_grappler_ArithmeticOptimizer_MinimizeBroadcasts": {"b": true}}}, {"name": "StatefulPartitionedCall/sequential_1/keras_layer_1/StatefulPartitionedCall/StatefulPartitionedCall/StatefulPartitionedCall/predict/MobilenetV3/expanded_conv_5/project/BatchNorm/FusedBatchNormV3", "op": "_FusedConv2D", "input": ["StatefulPartitionedCall/sequential_1/keras_layer_1/StatefulPartitionedCall/StatefulPartitionedCall/StatefulPartitionedCall/predict/MobilenetV3/expanded_conv_5/squeeze_excite/mul", "StatefulPartitionedCall/sequential_1/keras_layer_1/StatefulPartitionedCall/StatefulPartitionedCall/StatefulPartitionedCall/predict/MobilenetV3/expanded_conv_5/project/Conv2D_weights", "StatefulPartitionedCall/sequential_1/keras_layer_1/StatefulPartitionedCall/StatefulPartitionedCall/StatefulPartitionedCall/predict/MobilenetV3/expanded_conv_5/project/Conv2D_bn_offset"], "device": "/device:CPU:0", "attr": {"fused_ops": {"list": {"s": ["Qmlhc0FkZA=="]}}, "data_format": {"s": "TkhXQw=="}, "strides": {"list": {"i": ["1", "1", "1", "1"]}}, "padding": {"s": "U0FNRQ=="}, "leakyrelu_alpha": {"f": 0.2}, "dilations": {"list": {"i": ["1", "1", "1", "1"]}}, "use_cudnn_on_gpu": {"b": true}, "num_host_args": {"i": "0"}, "TArgs": {"list": {"type": ["DT_FLOAT"]}}, "explicit_paddings": {"list": {}}, "epsilon": {"f": 0.0}, "T": {"type": "DT_FLOAT"}, "filter_format": {"s": "SFdJTw=="}, "num_args": {"i": "1"}}}, {"name": "StatefulPartitionedCall/sequential_1/keras_layer_1/StatefulPartitionedCall/StatefulPartitionedCall/StatefulPartitionedCall/predict/MobilenetV3/expanded_conv_5/add", "op": "AddV2", "input": ["StatefulPartitionedCall/sequential_1/keras_layer_1/StatefulPartitionedCall/StatefulPartitionedCall/StatefulPartitionedCall/predict/MobilenetV3/expanded_conv_5/project/BatchNorm/FusedBatchNormV3", "StatefulPartitionedCall/sequential_1/keras_layer_1/StatefulPartitionedCall/StatefulPartitionedCall/StatefulPartitionedCall/predict/MobilenetV3/expanded_conv_4/add"], "attr": {"T": {"type": "DT_FLOAT"}}}, {"name": "StatefulPartitionedCall/sequential_1/keras_layer_1/StatefulPartitionedCall/StatefulPartitionedCall/StatefulPartitionedCall/predict/MobilenetV3/expanded_conv_6/expand/BatchNorm/FusedBatchNormV3", "op": "_FusedConv2D", "input": ["StatefulPartitionedCall/sequential_1/keras_layer_1/StatefulPartitionedCall/StatefulPartitionedCall/StatefulPartitionedCall/predict/MobilenetV3/expanded_conv_5/add", "StatefulPartitionedCall/sequential_1/keras_layer_1/StatefulPartitionedCall/StatefulPartitionedCall/StatefulPartitionedCall/predict/MobilenetV3/expanded_conv_6/expand/Conv2D_weights", "StatefulPartitionedCall/sequential_1/keras_layer_1/StatefulPartitionedCall/StatefulPartitionedCall/StatefulPartitionedCall/predict/MobilenetV3/expanded_conv_6/expand/Conv2D_bn_offset"], "device": "/device:CPU:0", "attr": {"dilations": {"list": {"i": ["1", "1", "1", "1"]}}, "leakyrelu_alpha": {"f": 0.2}, "explicit_paddings": {"list": {}}, "TArgs": {"list": {"type": ["DT_FLOAT"]}}, "data_format": {"s": "TkhXQw=="}, "strides": {"list": {"i": ["1", "1", "1", "1"]}}, "fused_ops": {"list": {"s": ["Qmlhc0FkZA=="]}}, "epsilon": {"f": 0.0}, "filter_format": {"s": "SFdJTw=="}, "num_host_args": {"i": "0"}, "T": {"type": "DT_FLOAT"}, "num_args": {"i": "1"}, "padding": {"s": "U0FNRQ=="}, "use_cudnn_on_gpu": {"b": true}}}, {"name": "StatefulPartitionedCall/sequential_1/keras_layer_1/StatefulPartitionedCall/StatefulPartitionedCall/StatefulPartitionedCall/predict/MobilenetV3/expanded_conv_6/expand/hard_swish/mul", "op": "Mul", "input": ["StatefulPartitionedCall/sequential_1/keras_layer_1/StatefulPartitionedCall/StatefulPartitionedCall/StatefulPartitionedCall/predict/MobilenetV3/expanded_conv_6/expand/hard_swish/mul_1/y", "StatefulPartitionedCall/sequential_1/keras_layer_1/StatefulPartitionedCall/StatefulPartitionedCall/StatefulPartitionedCall/predict/MobilenetV3/expanded_conv_6/expand/BatchNorm/FusedBatchNormV3"], "attr": {"T": {"type": "DT_FLOAT"}, "_grappler_ArithmeticOptimizer_MinimizeBroadcasts": {"b": true}}}, {"name": "StatefulPartitionedCall/sequential_1/keras_layer_1/StatefulPartitionedCall/StatefulPartitionedCall/StatefulPartitionedCall/predict/MobilenetV3/expanded_conv_6/expand/hard_swish/add", "op": "AddV2", "input": ["StatefulPartitionedCall/sequential_1/keras_layer_1/StatefulPartitionedCall/StatefulPartitionedCall/StatefulPartitionedCall/predict/MobilenetV3/expanded_conv_6/expand/BatchNorm/FusedBatchNormV3", "StatefulPartitionedCall/sequential_1/keras_layer_1/StatefulPartitionedCall/StatefulPartitionedCall/StatefulPartitionedCall/predict/MobilenetV3/expanded_conv_6/expand/hard_swish/add/y"], "attr": {"T": {"type": "DT_FLOAT"}}}, {"name": "StatefulPartitionedCall/sequential_1/keras_layer_1/StatefulPartitionedCall/StatefulPartitionedCall/StatefulPartitionedCall/predict/MobilenetV3/expanded_conv_6/expand/hard_swish/Relu6", "op": "Relu6", "input": ["StatefulPartitionedCall/sequential_1/keras_layer_1/StatefulPartitionedCall/StatefulPartitionedCall/StatefulPartitionedCall/predict/MobilenetV3/expanded_conv_6/expand/hard_swish/add"], "attr": {"T": {"type": "DT_FLOAT"}}}, {"name": "StatefulPartitionedCall/sequential_1/keras_layer_1/StatefulPartitionedCall/StatefulPartitionedCall/StatefulPartitionedCall/predict/MobilenetV3/expanded_conv_6/expand/hard_swish/mul_1", "op": "Mul", "input": ["StatefulPartitionedCall/sequential_1/keras_layer_1/StatefulPartitionedCall/StatefulPartitionedCall/StatefulPartitionedCall/predict/MobilenetV3/expanded_conv_6/expand/hard_swish/mul", "StatefulPartitionedCall/sequential_1/keras_layer_1/StatefulPartitionedCall/StatefulPartitionedCall/StatefulPartitionedCall/predict/MobilenetV3/expanded_conv_6/expand/hard_swish/Relu6"], "attr": {"T": {"type": "DT_FLOAT"}, "_grappler_ArithmeticOptimizer_MinimizeBroadcasts": {"b": true}}}, {"name": "StatefulPartitionedCall/sequential_1/keras_layer_1/StatefulPartitionedCall/StatefulPartitionedCall/StatefulPartitionedCall/predict/MobilenetV3/expanded_conv_6/depthwise/depthwise", "op": "FusedDepthwiseConv2dNative", "input": ["StatefulPartitionedCall/sequential_1/keras_layer_1/StatefulPartitionedCall/StatefulPartitionedCall/StatefulPartitionedCall/predict/MobilenetV3/expanded_conv_6/expand/hard_swish/mul_1", "StatefulPartitionedCall/sequential_1/keras_layer_1/StatefulPartitionedCall/StatefulPartitionedCall/StatefulPartitionedCall/predict/MobilenetV3/expanded_conv_6/depthwise/depthwise_weights", "StatefulPartitionedCall/sequential_1/keras_layer_1/StatefulPartitionedCall/StatefulPartitionedCall/StatefulPartitionedCall/predict/MobilenetV3/expanded_conv_6/depthwise/depthwise_bn_offset"], "attr": {"dilations": {"list": {"i": ["1", "1", "1", "1"]}}, "data_format": {"s": "TkhXQw=="}, "explicit_paddings": {"list": {}}, "T": {"type": "DT_FLOAT"}, "padding": {"s": "U0FNRQ=="}, "fused_ops": {"list": {"s": ["Qmlhc0FkZA=="]}}, "num_args": {"i": "1"}, "strides": {"list": {"i": ["1", "1", "1", "1"]}}}}, {"name": "StatefulPartitionedCall/sequential_1/keras_layer_1/StatefulPartitionedCall/StatefulPartitionedCall/StatefulPartitionedCall/predict/MobilenetV3/expanded_conv_6/depthwise/hard_swish/mul", "op": "Mul", "input": ["StatefulPartitionedCall/sequential_1/keras_layer_1/StatefulPartitionedCall/StatefulPartitionedCall/StatefulPartitionedCall/predict/MobilenetV3/expanded_conv_6/depthwise/hard_swish/mul_1/y", "StatefulPartitionedCall/sequential_1/keras_layer_1/StatefulPartitionedCall/StatefulPartitionedCall/StatefulPartitionedCall/predict/MobilenetV3/expanded_conv_6/depthwise/depthwise"], "attr": {"T": {"type": "DT_FLOAT"}, "_grappler_ArithmeticOptimizer_MinimizeBroadcasts": {"b": true}}}, {"name": "StatefulPartitionedCall/sequential_1/keras_layer_1/StatefulPartitionedCall/StatefulPartitionedCall/StatefulPartitionedCall/predict/MobilenetV3/expanded_conv_6/depthwise/hard_swish/add", "op": "AddV2", "input": ["StatefulPartitionedCall/sequential_1/keras_layer_1/StatefulPartitionedCall/StatefulPartitionedCall/StatefulPartitionedCall/predict/MobilenetV3/expanded_conv_6/depthwise/depthwise", "StatefulPartitionedCall/sequential_1/keras_layer_1/StatefulPartitionedCall/StatefulPartitionedCall/StatefulPartitionedCall/predict/MobilenetV3/expanded_conv_6/depthwise/hard_swish/add/y"], "attr": {"T": {"type": "DT_FLOAT"}}}, {"name": "StatefulPartitionedCall/sequential_1/keras_layer_1/StatefulPartitionedCall/StatefulPartitionedCall/StatefulPartitionedCall/predict/MobilenetV3/expanded_conv_6/depthwise/hard_swish/Relu6", "op": "Relu6", "input": ["StatefulPartitionedCall/sequential_1/keras_layer_1/StatefulPartitionedCall/StatefulPartitionedCall/StatefulPartitionedCall/predict/MobilenetV3/expanded_conv_6/depthwise/hard_swish/add"], "attr": {"T": {"type": "DT_FLOAT"}}}, {"name": "StatefulPartitionedCall/sequential_1/keras_layer_1/StatefulPartitionedCall/StatefulPartitionedCall/StatefulPartitionedCall/predict/MobilenetV3/expanded_conv_6/depthwise/hard_swish/mul_1", "op": "Mul", "input": ["StatefulPartitionedCall/sequential_1/keras_layer_1/StatefulPartitionedCall/StatefulPartitionedCall/StatefulPartitionedCall/predict/MobilenetV3/expanded_conv_6/depthwise/hard_swish/mul", "StatefulPartitionedCall/sequential_1/keras_layer_1/StatefulPartitionedCall/StatefulPartitionedCall/StatefulPartitionedCall/predict/MobilenetV3/expanded_conv_6/depthwise/hard_swish/Relu6"], "attr": {"T": {"type": "DT_FLOAT"}, "_grappler_ArithmeticOptimizer_MinimizeBroadcasts": {"b": true}}}, {"name": "StatefulPartitionedCall/sequential_1/keras_layer_1/StatefulPartitionedCall/StatefulPartitionedCall/StatefulPartitionedCall/predict/MobilenetV3/expanded_conv_6/squeeze_excite/Mean", "op": "Mean", "input": ["StatefulPartitionedCall/sequential_1/keras_layer_1/StatefulPartitionedCall/StatefulPartitionedCall/StatefulPartitionedCall/predict/MobilenetV3/expanded_conv_6/depthwise/hard_swish/mul_1", "StatefulPartitionedCall/sequential_1/keras_layer_1/StatefulPartitionedCall/StatefulPartitionedCall/StatefulPartitionedCall/predict/MobilenetV3/expanded_conv_6/squeeze_excite/Mean/reduction_indices"], "attr": {"keep_dims": {"b": true}, "Tidx": {"type": "DT_INT32"}, "T": {"type": "DT_FLOAT"}}}, {"name": "StatefulPartitionedCall/sequential_1/keras_layer_1/StatefulPartitionedCall/StatefulPartitionedCall/StatefulPartitionedCall/predict/MobilenetV3/expanded_conv_6/squeeze_excite/Conv/Relu", "op": "_FusedConv2D", "input": ["StatefulPartitionedCall/sequential_1/keras_layer_1/StatefulPartitionedCall/StatefulPartitionedCall/StatefulPartitionedCall/predict/MobilenetV3/expanded_conv_6/squeeze_excite/Mean", "Func/StatefulPartitionedCall/sequential_1/keras_layer_1/StatefulPartitionedCall/StatefulPartitionedCall/StatefulPartitionedCall/input/_757", "Func/StatefulPartitionedCall/sequential_1/keras_layer_1/StatefulPartitionedCall/StatefulPartitionedCall/StatefulPartitionedCall/input/_758"], "device": "/device:CPU:0", "attr": {"TArgs": {"list": {"type": ["DT_FLOAT"]}}, "T": {"type": "DT_FLOAT"}, "num_host_args": {"i": "0"}, "num_args": {"i": "1"}, "data_format": {"s": "TkhXQw=="}, "epsilon": {"f": 0.0}, "filter_format": {"s": "SFdJTw=="}, "use_cudnn_on_gpu": {"b": true}, "explicit_paddings": {"list": {}}, "leakyrelu_alpha": {"f": 0.2}, "padding": {"s": "U0FNRQ=="}, "dilations": {"list": {"i": ["1", "1", "1", "1"]}}, "fused_ops": {"list": {"s": ["Qmlhc0FkZA==", "UmVsdQ=="]}}, "strides": {"list": {"i": ["1", "1", "1", "1"]}}}}, {"name": "StatefulPartitionedCall/sequential_1/keras_layer_1/StatefulPartitionedCall/StatefulPartitionedCall/StatefulPartitionedCall/predict/MobilenetV3/expanded_conv_6/squeeze_excite/Conv_1/BiasAdd", "op": "_FusedConv2D", "input": ["StatefulPartitionedCall/sequential_1/keras_layer_1/StatefulPartitionedCall/StatefulPartitionedCall/StatefulPartitionedCall/predict/MobilenetV3/expanded_conv_6/squeeze_excite/Conv/Relu", "Func/StatefulPartitionedCall/sequential_1/keras_layer_1/StatefulPartitionedCall/StatefulPartitionedCall/StatefulPartitionedCall/input/_759", "Func/StatefulPartitionedCall/sequential_1/keras_layer_1/StatefulPartitionedCall/StatefulPartitionedCall/StatefulPartitionedCall/input/_760"], "device": "/device:CPU:0", "attr": {"T": {"type": "DT_FLOAT"}, "num_args": {"i": "1"}, "dilations": {"list": {"i": ["1", "1", "1", "1"]}}, "data_format": {"s": "TkhXQw=="}, "leakyrelu_alpha": {"f": 0.2}, "TArgs": {"list": {"type": ["DT_FLOAT"]}}, "use_cudnn_on_gpu": {"b": true}, "num_host_args": {"i": "0"}, "fused_ops": {"list": {"s": ["Qmlhc0FkZA=="]}}, "explicit_paddings": {"list": {}}, "filter_format": {"s": "SFdJTw=="}, "strides": {"list": {"i": ["1", "1", "1", "1"]}}, "epsilon": {"f": 0.0}, "padding": {"s": "U0FNRQ=="}}}, {"name": "StatefulPartitionedCall/sequential_1/keras_layer_1/StatefulPartitionedCall/StatefulPartitionedCall/StatefulPartitionedCall/predict/MobilenetV3/expanded_conv_6/squeeze_excite/Conv_1/add", "op": "AddV2", "input": ["StatefulPartitionedCall/sequential_1/keras_layer_1/StatefulPartitionedCall/StatefulPartitionedCall/StatefulPartitionedCall/predict/MobilenetV3/expanded_conv_6/squeeze_excite/Conv_1/BiasAdd", "StatefulPartitionedCall/sequential_1/keras_layer_1/StatefulPartitionedCall/StatefulPartitionedCall/StatefulPartitionedCall/predict/MobilenetV3/expanded_conv_6/squeeze_excite/Conv_1/add/y"], "attr": {"T": {"type": "DT_FLOAT"}}}, {"name": "StatefulPartitionedCall/sequential_1/keras_layer_1/StatefulPartitionedCall/StatefulPartitionedCall/StatefulPartitionedCall/predict/MobilenetV3/expanded_conv_6/squeeze_excite/Conv_1/Relu6", "op": "Relu6", "input": ["StatefulPartitionedCall/sequential_1/keras_layer_1/StatefulPartitionedCall/StatefulPartitionedCall/StatefulPartitionedCall/predict/MobilenetV3/expanded_conv_6/squeeze_excite/Conv_1/add"], "attr": {"T": {"type": "DT_FLOAT"}}}, {"name": "StatefulPartitionedCall/sequential_1/keras_layer_1/StatefulPartitionedCall/StatefulPartitionedCall/StatefulPartitionedCall/predict/MobilenetV3/expanded_conv_6/squeeze_excite/Conv_1/mul", "op": "Mul", "input": ["StatefulPartitionedCall/sequential_1/keras_layer_1/StatefulPartitionedCall/StatefulPartitionedCall/StatefulPartitionedCall/predict/MobilenetV3/expanded_conv_6/squeeze_excite/Conv_1/mul/y", "StatefulPartitionedCall/sequential_1/keras_layer_1/StatefulPartitionedCall/StatefulPartitionedCall/StatefulPartitionedCall/predict/MobilenetV3/expanded_conv_6/squeeze_excite/Conv_1/Relu6"], "attr": {"_grappler_ArithmeticOptimizer_MinimizeBroadcasts": {"b": true}, "T": {"type": "DT_FLOAT"}}}, {"name": "StatefulPartitionedCall/sequential_1/keras_layer_1/StatefulPartitionedCall/StatefulPartitionedCall/StatefulPartitionedCall/predict/MobilenetV3/expanded_conv_6/squeeze_excite/mul", "op": "Mul", "input": ["StatefulPartitionedCall/sequential_1/keras_layer_1/StatefulPartitionedCall/StatefulPartitionedCall/StatefulPartitionedCall/predict/MobilenetV3/expanded_conv_6/squeeze_excite/Conv_1/mul", "StatefulPartitionedCall/sequential_1/keras_layer_1/StatefulPartitionedCall/StatefulPartitionedCall/StatefulPartitionedCall/predict/MobilenetV3/expanded_conv_6/depthwise/hard_swish/mul_1"], "attr": {"T": {"type": "DT_FLOAT"}, "_grappler_ArithmeticOptimizer_MinimizeBroadcasts": {"b": true}}}, {"name": "StatefulPartitionedCall/sequential_1/keras_layer_1/StatefulPartitionedCall/StatefulPartitionedCall/StatefulPartitionedCall/predict/MobilenetV3/expanded_conv_6/project/BatchNorm/FusedBatchNormV3", "op": "_FusedConv2D", "input": ["StatefulPartitionedCall/sequential_1/keras_layer_1/StatefulPartitionedCall/StatefulPartitionedCall/StatefulPartitionedCall/predict/MobilenetV3/expanded_conv_6/squeeze_excite/mul", "StatefulPartitionedCall/sequential_1/keras_layer_1/StatefulPartitionedCall/StatefulPartitionedCall/StatefulPartitionedCall/predict/MobilenetV3/expanded_conv_6/project/Conv2D_weights", "StatefulPartitionedCall/sequential_1/keras_layer_1/StatefulPartitionedCall/StatefulPartitionedCall/StatefulPartitionedCall/predict/MobilenetV3/expanded_conv_6/project/Conv2D_bn_offset"], "device": "/device:CPU:0", "attr": {"T": {"type": "DT_FLOAT"}, "num_host_args": {"i": "0"}, "use_cudnn_on_gpu": {"b": true}, "fused_ops": {"list": {"s": ["Qmlhc0FkZA=="]}}, "num_args": {"i": "1"}, "padding": {"s": "U0FNRQ=="}, "epsilon": {"f": 0.0}, "explicit_paddings": {"list": {}}, "filter_format": {"s": "SFdJTw=="}, "leakyrelu_alpha": {"f": 0.2}, "TArgs": {"list": {"type": ["DT_FLOAT"]}}, "dilations": {"list": {"i": ["1", "1", "1", "1"]}}, "strides": {"list": {"i": ["1", "1", "1", "1"]}}, "data_format": {"s": "TkhXQw=="}}}, {"name": "StatefulPartitionedCall/sequential_1/keras_layer_1/StatefulPartitionedCall/StatefulPartitionedCall/StatefulPartitionedCall/predict/MobilenetV3/expanded_conv_7/expand/BatchNorm/FusedBatchNormV3", "op": "_FusedConv2D", "input": ["StatefulPartitionedCall/sequential_1/keras_layer_1/StatefulPartitionedCall/StatefulPartitionedCall/StatefulPartitionedCall/predict/MobilenetV3/expanded_conv_6/project/BatchNorm/FusedBatchNormV3", "StatefulPartitionedCall/sequential_1/keras_layer_1/StatefulPartitionedCall/StatefulPartitionedCall/StatefulPartitionedCall/predict/MobilenetV3/expanded_conv_7/expand/Conv2D_weights", "StatefulPartitionedCall/sequential_1/keras_layer_1/StatefulPartitionedCall/StatefulPartitionedCall/StatefulPartitionedCall/predict/MobilenetV3/expanded_conv_7/expand/Conv2D_bn_offset"], "device": "/device:CPU:0", "attr": {"T": {"type": "DT_FLOAT"}, "padding": {"s": "U0FNRQ=="}, "explicit_paddings": {"list": {}}, "use_cudnn_on_gpu": {"b": true}, "strides": {"list": {"i": ["1", "1", "1", "1"]}}, "fused_ops": {"list": {"s": ["Qmlhc0FkZA=="]}}, "TArgs": {"list": {"type": ["DT_FLOAT"]}}, "filter_format": {"s": "SFdJTw=="}, "dilations": {"list": {"i": ["1", "1", "1", "1"]}}, "num_host_args": {"i": "0"}, "data_format": {"s": "TkhXQw=="}, "leakyrelu_alpha": {"f": 0.2}, "num_args": {"i": "1"}, "epsilon": {"f": 0.0}}}, {"name": "StatefulPartitionedCall/sequential_1/keras_layer_1/StatefulPartitionedCall/StatefulPartitionedCall/StatefulPartitionedCall/predict/MobilenetV3/expanded_conv_7/expand/hard_swish/mul", "op": "Mul", "input": ["StatefulPartitionedCall/sequential_1/keras_layer_1/StatefulPartitionedCall/StatefulPartitionedCall/StatefulPartitionedCall/predict/MobilenetV3/expanded_conv_7/expand/hard_swish/mul_1/y", "StatefulPartitionedCall/sequential_1/keras_layer_1/StatefulPartitionedCall/StatefulPartitionedCall/StatefulPartitionedCall/predict/MobilenetV3/expanded_conv_7/expand/BatchNorm/FusedBatchNormV3"], "attr": {"T": {"type": "DT_FLOAT"}, "_grappler_ArithmeticOptimizer_MinimizeBroadcasts": {"b": true}}}, {"name": "StatefulPartitionedCall/sequential_1/keras_layer_1/StatefulPartitionedCall/StatefulPartitionedCall/StatefulPartitionedCall/predict/MobilenetV3/expanded_conv_7/expand/hard_swish/add", "op": "AddV2", "input": ["StatefulPartitionedCall/sequential_1/keras_layer_1/StatefulPartitionedCall/StatefulPartitionedCall/StatefulPartitionedCall/predict/MobilenetV3/expanded_conv_7/expand/BatchNorm/FusedBatchNormV3", "StatefulPartitionedCall/sequential_1/keras_layer_1/StatefulPartitionedCall/StatefulPartitionedCall/StatefulPartitionedCall/predict/MobilenetV3/expanded_conv_7/expand/hard_swish/add/y"], "attr": {"T": {"type": "DT_FLOAT"}}}, {"name": "StatefulPartitionedCall/sequential_1/keras_layer_1/StatefulPartitionedCall/StatefulPartitionedCall/StatefulPartitionedCall/predict/MobilenetV3/expanded_conv_7/expand/hard_swish/Relu6", "op": "Relu6", "input": ["StatefulPartitionedCall/sequential_1/keras_layer_1/StatefulPartitionedCall/StatefulPartitionedCall/StatefulPartitionedCall/predict/MobilenetV3/expanded_conv_7/expand/hard_swish/add"], "attr": {"T": {"type": "DT_FLOAT"}}}, {"name": "StatefulPartitionedCall/sequential_1/keras_layer_1/StatefulPartitionedCall/StatefulPartitionedCall/StatefulPartitionedCall/predict/MobilenetV3/expanded_conv_7/expand/hard_swish/mul_1", "op": "Mul", "input": ["StatefulPartitionedCall/sequential_1/keras_layer_1/StatefulPartitionedCall/StatefulPartitionedCall/StatefulPartitionedCall/predict/MobilenetV3/expanded_conv_7/expand/hard_swish/mul", "StatefulPartitionedCall/sequential_1/keras_layer_1/StatefulPartitionedCall/StatefulPartitionedCall/StatefulPartitionedCall/predict/MobilenetV3/expanded_conv_7/expand/hard_swish/Relu6"], "attr": {"_grappler_ArithmeticOptimizer_MinimizeBroadcasts": {"b": true}, "T": {"type": "DT_FLOAT"}}}, {"name": "StatefulPartitionedCall/sequential_1/keras_layer_1/StatefulPartitionedCall/StatefulPartitionedCall/StatefulPartitionedCall/predict/MobilenetV3/expanded_conv_7/depthwise/depthwise", "op": "FusedDepthwiseConv2dNative", "input": ["StatefulPartitionedCall/sequential_1/keras_layer_1/StatefulPartitionedCall/StatefulPartitionedCall/StatefulPartitionedCall/predict/MobilenetV3/expanded_conv_7/expand/hard_swish/mul_1", "StatefulPartitionedCall/sequential_1/keras_layer_1/StatefulPartitionedCall/StatefulPartitionedCall/StatefulPartitionedCall/predict/MobilenetV3/expanded_conv_7/depthwise/depthwise_weights", "StatefulPartitionedCall/sequential_1/keras_layer_1/StatefulPartitionedCall/StatefulPartitionedCall/StatefulPartitionedCall/predict/MobilenetV3/expanded_conv_7/depthwise/depthwise_bn_offset"], "attr": {"strides": {"list": {"i": ["1", "1", "1", "1"]}}, "num_args": {"i": "1"}, "dilations": {"list": {"i": ["1", "1", "1", "1"]}}, "padding": {"s": "U0FNRQ=="}, "explicit_paddings": {"list": {}}, "fused_ops": {"list": {"s": ["Qmlhc0FkZA=="]}}, "T": {"type": "DT_FLOAT"}, "data_format": {"s": "TkhXQw=="}}}, {"name": "StatefulPartitionedCall/sequential_1/keras_layer_1/StatefulPartitionedCall/StatefulPartitionedCall/StatefulPartitionedCall/predict/MobilenetV3/expanded_conv_7/depthwise/hard_swish/mul", "op": "Mul", "input": ["StatefulPartitionedCall/sequential_1/keras_layer_1/StatefulPartitionedCall/StatefulPartitionedCall/StatefulPartitionedCall/predict/MobilenetV3/expanded_conv_7/depthwise/hard_swish/mul_1/y", "StatefulPartitionedCall/sequential_1/keras_layer_1/StatefulPartitionedCall/StatefulPartitionedCall/StatefulPartitionedCall/predict/MobilenetV3/expanded_conv_7/depthwise/depthwise"], "attr": {"_grappler_ArithmeticOptimizer_MinimizeBroadcasts": {"b": true}, "T": {"type": "DT_FLOAT"}}}, {"name": "StatefulPartitionedCall/sequential_1/keras_layer_1/StatefulPartitionedCall/StatefulPartitionedCall/StatefulPartitionedCall/predict/MobilenetV3/expanded_conv_7/depthwise/hard_swish/add", "op": "AddV2", "input": ["StatefulPartitionedCall/sequential_1/keras_layer_1/StatefulPartitionedCall/StatefulPartitionedCall/StatefulPartitionedCall/predict/MobilenetV3/expanded_conv_7/depthwise/depthwise", "StatefulPartitionedCall/sequential_1/keras_layer_1/StatefulPartitionedCall/StatefulPartitionedCall/StatefulPartitionedCall/predict/MobilenetV3/expanded_conv_7/depthwise/hard_swish/add/y"], "attr": {"T": {"type": "DT_FLOAT"}}}, {"name": "StatefulPartitionedCall/sequential_1/keras_layer_1/StatefulPartitionedCall/StatefulPartitionedCall/StatefulPartitionedCall/predict/MobilenetV3/expanded_conv_7/depthwise/hard_swish/Relu6", "op": "Relu6", "input": ["StatefulPartitionedCall/sequential_1/keras_layer_1/StatefulPartitionedCall/StatefulPartitionedCall/StatefulPartitionedCall/predict/MobilenetV3/expanded_conv_7/depthwise/hard_swish/add"], "attr": {"T": {"type": "DT_FLOAT"}}}, {"name": "StatefulPartitionedCall/sequential_1/keras_layer_1/StatefulPartitionedCall/StatefulPartitionedCall/StatefulPartitionedCall/predict/MobilenetV3/expanded_conv_7/depthwise/hard_swish/mul_1", "op": "Mul", "input": ["StatefulPartitionedCall/sequential_1/keras_layer_1/StatefulPartitionedCall/StatefulPartitionedCall/StatefulPartitionedCall/predict/MobilenetV3/expanded_conv_7/depthwise/hard_swish/mul", "StatefulPartitionedCall/sequential_1/keras_layer_1/StatefulPartitionedCall/StatefulPartitionedCall/StatefulPartitionedCall/predict/MobilenetV3/expanded_conv_7/depthwise/hard_swish/Relu6"], "attr": {"T": {"type": "DT_FLOAT"}, "_grappler_ArithmeticOptimizer_MinimizeBroadcasts": {"b": true}}}, {"name": "StatefulPartitionedCall/sequential_1/keras_layer_1/StatefulPartitionedCall/StatefulPartitionedCall/StatefulPartitionedCall/predict/MobilenetV3/expanded_conv_7/squeeze_excite/Mean", "op": "Mean", "input": ["StatefulPartitionedCall/sequential_1/keras_layer_1/StatefulPartitionedCall/StatefulPartitionedCall/StatefulPartitionedCall/pr…
itionedCall/predict/MobilenetV3/expanded_conv_10/project/Conv2D_bn_offset"], "device": "/device:CPU:0", "attr": {"fused_ops": {"list": {"s": ["Qmlhc0FkZA=="]}}, "num_host_args": {"i": "0"}, "padding": {"s": "U0FNRQ=="}, "filter_format": {"s": "SFdJTw=="}, "dilations": {"list": {"i": ["1", "1", "1", "1"]}}, "data_format": {"s": "TkhXQw=="}, "use_cudnn_on_gpu": {"b": true}, "strides": {"list": {"i": ["1", "1", "1", "1"]}}, "explicit_paddings": {"list": {}}, "epsilon": {"f": 0.0}, "leakyrelu_alpha": {"f": 0.2}, "TArgs": {"list": {"type": ["DT_FLOAT"]}}, "T": {"type": "DT_FLOAT"}, "num_args": {"i": "1"}}}, {"name": "StatefulPartitionedCall/sequential_1/keras_layer_1/StatefulPartitionedCall/StatefulPartitionedCall/StatefulPartitionedCall/predict/MobilenetV3/expanded_conv_10/add", "op": "AddV2", "input": ["StatefulPartitionedCall/sequential_1/keras_layer_1/StatefulPartitionedCall/StatefulPartitionedCall/StatefulPartitionedCall/predict/MobilenetV3/expanded_conv_10/project/BatchNorm/FusedBatchNormV3", "StatefulPartitionedCall/sequential_1/keras_layer_1/StatefulPartitionedCall/StatefulPartitionedCall/StatefulPartitionedCall/predict/MobilenetV3/expanded_conv_9/add"], "attr": {"T": {"type": "DT_FLOAT"}}}, {"name": "StatefulPartitionedCall/sequential_1/keras_layer_1/StatefulPartitionedCall/StatefulPartitionedCall/StatefulPartitionedCall/predict/MobilenetV3/Conv_1/BatchNorm/FusedBatchNormV3", "op": "_FusedConv2D", "input": ["StatefulPartitionedCall/sequential_1/keras_layer_1/StatefulPartitionedCall/StatefulPartitionedCall/StatefulPartitionedCall/predict/MobilenetV3/expanded_conv_10/add", "StatefulPartitionedCall/sequential_1/keras_layer_1/StatefulPartitionedCall/StatefulPartitionedCall/StatefulPartitionedCall/predict/MobilenetV3/Conv_1/Conv2D_weights", "StatefulPartitionedCall/sequential_1/keras_layer_1/StatefulPartitionedCall/StatefulPartitionedCall/StatefulPartitionedCall/predict/MobilenetV3/Conv_1/Conv2D_bn_offset"], "device": "/device:CPU:0", "attr": {"num_args": {"i": "1"}, "strides": {"list": {"i": ["1", "1", "1", "1"]}}, "dilations": {"list": {"i": ["1", "1", "1", "1"]}}, "epsilon": {"f": 0.0}, "padding": {"s": "U0FNRQ=="}, "filter_format": {"s": "SFdJTw=="}, "TArgs": {"list": {"type": ["DT_FLOAT"]}}, "leakyrelu_alpha": {"f": 0.2}, "use_cudnn_on_gpu": {"b": true}, "data_format": {"s": "TkhXQw=="}, "num_host_args": {"i": "0"}, "fused_ops": {"list": {"s": ["Qmlhc0FkZA=="]}}, "explicit_paddings": {"list": {}}, "T": {"type": "DT_FLOAT"}}}, {"name": "StatefulPartitionedCall/sequential_1/keras_layer_1/StatefulPartitionedCall/StatefulPartitionedCall/StatefulPartitionedCall/predict/MobilenetV3/Conv_1/hard_swish/mul", "op": "Mul", "input": ["StatefulPartitionedCall/sequential_1/keras_layer_1/StatefulPartitionedCall/StatefulPartitionedCall/StatefulPartitionedCall/predict/MobilenetV3/Conv_1/hard_swish/mul_1/y", "StatefulPartitionedCall/sequential_1/keras_layer_1/StatefulPartitionedCall/StatefulPartitionedCall/StatefulPartitionedCall/predict/MobilenetV3/Conv_1/BatchNorm/FusedBatchNormV3"], "attr": {"T": {"type": "DT_FLOAT"}, "_grappler_ArithmeticOptimizer_MinimizeBroadcasts": {"b": true}}}, {"name": "StatefulPartitionedCall/sequential_1/keras_layer_1/StatefulPartitionedCall/StatefulPartitionedCall/StatefulPartitionedCall/predict/MobilenetV3/Conv_1/hard_swish/add", "op": "AddV2", "input": ["StatefulPartitionedCall/sequential_1/keras_layer_1/StatefulPartitionedCall/StatefulPartitionedCall/StatefulPartitionedCall/predict/MobilenetV3/Conv_1/BatchNorm/FusedBatchNormV3", "StatefulPartitionedCall/sequential_1/keras_layer_1/StatefulPartitionedCall/StatefulPartitionedCall/StatefulPartitionedCall/predict/MobilenetV3/Conv_1/hard_swish/add/y"], "attr": {"T": {"type": "DT_FLOAT"}}}, {"name": "StatefulPartitionedCall/sequential_1/keras_layer_1/StatefulPartitionedCall/StatefulPartitionedCall/StatefulPartitionedCall/predict/MobilenetV3/Conv_1/hard_swish/Relu6", "op": "Relu6", "input": ["StatefulPartitionedCall/sequential_1/keras_layer_1/StatefulPartitionedCall/StatefulPartitionedCall/StatefulPartitionedCall/predict/MobilenetV3/Conv_1/hard_swish/add"], "attr": {"T": {"type": "DT_FLOAT"}}}, {"name": "StatefulPartitionedCall/sequential_1/keras_layer_1/StatefulPartitionedCall/StatefulPartitionedCall/StatefulPartitionedCall/predict/MobilenetV3/Conv_1/hard_swish/mul_1", "op": "Mul", "input": ["StatefulPartitionedCall/sequential_1/keras_layer_1/StatefulPartitionedCall/StatefulPartitionedCall/StatefulPartitionedCall/predict/MobilenetV3/Conv_1/hard_swish/mul", "StatefulPartitionedCall/sequential_1/keras_layer_1/StatefulPartitionedCall/StatefulPartitionedCall/StatefulPartitionedCall/predict/MobilenetV3/Conv_1/hard_swish/Relu6"], "attr": {"T": {"type": "DT_FLOAT"}, "_grappler_ArithmeticOptimizer_MinimizeBroadcasts": {"b": true}}}, {"name": "StatefulPartitionedCall/sequential_1/keras_layer_1/StatefulPartitionedCall/StatefulPartitionedCall/StatefulPartitionedCall/predict/MobilenetV3/AvgPool2D/AvgPool", "op": "AvgPool", "input": ["StatefulPartitionedCall/sequential_1/keras_layer_1/StatefulPartitionedCall/StatefulPartitionedCall/StatefulPartitionedCall/predict/MobilenetV3/Conv_1/hard_swish/mul_1"], "attr": {"T": {"type": "DT_FLOAT"}, "padding": {"s": "VkFMSUQ="}, "data_format": {"s": "TkhXQw=="}, "ksize": {"list": {"i": ["1", "7", "7", "1"]}}, "strides": {"list": {"i": ["1", "1", "1", "1"]}}}}, {"name": "StatefulPartitionedCall/sequential_1/keras_layer_1/StatefulPartitionedCall/StatefulPartitionedCall/StatefulPartitionedCall/predict/MobilenetV3/Conv_2/BiasAdd", "op": "_FusedConv2D", "input": ["StatefulPartitionedCall/sequential_1/keras_layer_1/StatefulPartitionedCall/StatefulPartitionedCall/StatefulPartitionedCall/predict/MobilenetV3/AvgPool2D/AvgPool", "Func/StatefulPartitionedCall/sequential_1/keras_layer_1/StatefulPartitionedCall/StatefulPartitionedCall/StatefulPartitionedCall/input/_847", "Func/StatefulPartitionedCall/sequential_1/keras_layer_1/StatefulPartitionedCall/StatefulPartitionedCall/StatefulPartitionedCall/input/_848"], "device": "/device:CPU:0", "attr": {"filter_format": {"s": "SFdJTw=="}, "dilations": {"list": {"i": ["1", "1", "1", "1"]}}, "epsilon": {"f": 0.0}, "TArgs": {"list": {"type": ["DT_FLOAT"]}}, "explicit_paddings": {"list": {}}, "num_args": {"i": "1"}, "use_cudnn_on_gpu": {"b": true}, "fused_ops": {"list": {"s": ["Qmlhc0FkZA=="]}}, "T": {"type": "DT_FLOAT"}, "num_host_args": {"i": "0"}, "leakyrelu_alpha": {"f": 0.2}, "strides": {"list": {"i": ["1", "1", "1", "1"]}}, "padding": {"s": "U0FNRQ=="}, "data_format": {"s": "TkhXQw=="}}}, {"name": "StatefulPartitionedCall/sequential_1/keras_layer_1/StatefulPartitionedCall/StatefulPartitionedCall/StatefulPartitionedCall/predict/MobilenetV3/Conv_2/hard_swish/mul", "op": "Mul", "input": ["StatefulPartitionedCall/sequential_1/keras_layer_1/StatefulPartitionedCall/StatefulPartitionedCall/StatefulPartitionedCall/predict/MobilenetV3/Conv_2/hard_swish/mul_1/y", "StatefulPartitionedCall/sequential_1/keras_layer_1/StatefulPartitionedCall/StatefulPartitionedCall/StatefulPartitionedCall/predict/MobilenetV3/Conv_2/BiasAdd"], "attr": {"_grappler_ArithmeticOptimizer_MinimizeBroadcasts": {"b": true}, "T": {"type": "DT_FLOAT"}}}, {"name": "StatefulPartitionedCall/sequential_1/keras_layer_1/StatefulPartitionedCall/StatefulPartitionedCall/StatefulPartitionedCall/predict/MobilenetV3/Conv_2/hard_swish/add", "op": "AddV2", "input": ["StatefulPartitionedCall/sequential_1/keras_layer_1/StatefulPartitionedCall/StatefulPartitionedCall/StatefulPartitionedCall/predict/MobilenetV3/Conv_2/BiasAdd", "StatefulPartitionedCall/sequential_1/keras_layer_1/StatefulPartitionedCall/StatefulPartitionedCall/StatefulPartitionedCall/predict/MobilenetV3/Conv_2/hard_swish/add/y"], "attr": {"T": {"type": "DT_FLOAT"}}}, {"name": "StatefulPartitionedCall/sequential_1/keras_layer_1/StatefulPartitionedCall/StatefulPartitionedCall/StatefulPartitionedCall/predict/MobilenetV3/Conv_2/hard_swish/Relu6", "op": "Relu6", "input": ["StatefulPartitionedCall/sequential_1/keras_layer_1/StatefulPartitionedCall/StatefulPartitionedCall/StatefulPartitionedCall/predict/MobilenetV3/Conv_2/hard_swish/add"], "attr": {"T": {"type": "DT_FLOAT"}}}, {"name": "StatefulPartitionedCall/sequential_1/keras_layer_1/StatefulPartitionedCall/StatefulPartitionedCall/StatefulPartitionedCall/predict/MobilenetV3/Conv_2/hard_swish/mul_1", "op": "Mul", "input": ["StatefulPartitionedCall/sequential_1/keras_layer_1/StatefulPartitionedCall/StatefulPartitionedCall/StatefulPartitionedCall/predict/MobilenetV3/Conv_2/hard_swish/mul", "StatefulPartitionedCall/sequential_1/keras_layer_1/StatefulPartitionedCall/StatefulPartitionedCall/StatefulPartitionedCall/predict/MobilenetV3/Conv_2/hard_swish/Relu6"], "attr": {"_grappler_ArithmeticOptimizer_MinimizeBroadcasts": {"b": true}, "T": {"type": "DT_FLOAT"}}}, {"name": "StatefulPartitionedCall/sequential_1/keras_layer_1/StatefulPartitionedCall/StatefulPartitionedCall/StatefulPartitionedCall/predict/MobilenetV3/Logits/AvgPool", "op": "AvgPool", "input": ["StatefulPartitionedCall/sequential_1/keras_layer_1/StatefulPartitionedCall/StatefulPartitionedCall/StatefulPartitionedCall/predict/MobilenetV3/Conv_2/hard_swish/mul_1"], "attr": {"strides": {"list": {"i": ["1", "1", "1", "1"]}}, "padding": {"s": "VkFMSUQ="}, "ksize": {"list": {"i": ["1", "1", "1", "1"]}}, "data_format": {"s": "TkhXQw=="}, "T": {"type": "DT_FLOAT"}}}, {"name": "StatefulPartitionedCall/sequential_1/keras_layer_1/StatefulPartitionedCall/StatefulPartitionedCall/StatefulPartitionedCall/predict/feature_vector/SpatialSqueeze", "op": "Squeeze", "input": ["StatefulPartitionedCall/sequential_1/keras_layer_1/StatefulPartitionedCall/StatefulPartitionedCall/StatefulPartitionedCall/predict/MobilenetV3/Logits/AvgPool"], "attr": {"squeeze_dims": {"list": {"i": ["1", "2"]}}, "T": {"type": "DT_FLOAT"}}}, {"name": "StatefulPartitionedCall/sequential_1/dense_1/BiasAdd", "op": "_FusedMatMul", "input": ["StatefulPartitionedCall/sequential_1/keras_layer_1/StatefulPartitionedCall/StatefulPartitionedCall/StatefulPartitionedCall/predict/feature_vector/SpatialSqueeze", "StatefulPartitionedCall/sequential_1/dense_1/MatMul/ReadVariableOp", "StatefulPartitionedCall/sequential_1/dense_1/BiasAdd/ReadVariableOp"], "device": "/device:CPU:0", "attr": {"fused_ops": {"list": {"s": ["Qmlhc0FkZA=="]}}, "transpose_a": {"b": false}, "epsilon": {"f": 0.0}, "T": {"type": "DT_FLOAT"}, "num_args": {"i": "1"}, "transpose_b": {"b": false}, "leakyrelu_alpha": {"f": 0.2}}}, {"name": "StatefulPartitionedCall/sequential_1/dense_1/Softmax", "op": "Softmax", "input": ["StatefulPartitionedCall/sequential_1/dense_1/BiasAdd"], "attr": {"T": {"type": "DT_FLOAT"}}}, {"name": "Identity", "op": "Identity", "input": ["StatefulPartitionedCall/sequential_1/dense_1/Softmax"], "attr": {"T": {"type": "DT_FLOAT"}}}], "library": {}, "versions": {"producer": 1575}}, "weightsManifest": [{"paths": ["group1-shard1of1.bin"], "weights": [{"name": "StatefulPartitionedCall/sequential_1/dense_1/MatMul/ReadVariableOp", "shape": [1024, 11], "dtype": "float32"}, {"name": "StatefulPartitionedCall/sequential_1/dense_1/BiasAdd/ReadVariableOp", "shape": [11], "dtype": "float32"}, {"name": "StatefulPartitionedCall/sequential_1/keras_layer_1/StatefulPartitionedCall/StatefulPartitionedCall/StatefulPartitionedCall/predict/MobilenetV3/Conv/Conv2D_weights", "shape": [3, 3, 3, 16], "dtype": "float32"}, {"name": "StatefulPartitionedCall/sequential_1/keras_layer_1/StatefulPartitionedCall/StatefulPartitionedCall/StatefulPartitionedCall/predict/MobilenetV3/Conv/Conv2D_bn_offset", "shape": [16], "dtype": "float32"}, {"name": "StatefulPartitionedCall/sequential_1/keras_layer_1/StatefulPartitionedCall/StatefulPartitionedCall/StatefulPartitionedCall/predict/MobilenetV3/expanded_conv/depthwise/depthwise_weights", "shape": [3, 3, 16, 1], "dtype": "float32"}, {"name": "StatefulPartitionedCall/sequential_1/keras_layer_1/StatefulPartitionedCall/StatefulPartitionedCall/StatefulPartitionedCall/predict/MobilenetV3/expanded_conv/depthwise/depthwise_bn_offset", "shape": [16], "dtype": "float32"}, {"name": "StatefulPartitionedCall/sequential_1/keras_layer_1/StatefulPartitionedCall/StatefulPartitionedCall/StatefulPartitionedCall/predict/MobilenetV3/expanded_conv_10/expand/Conv2D_weights", "shape": [1, 1, 72, 432], "dtype": "float32"}, {"name": "StatefulPartitionedCall/sequential_1/keras_layer_1/StatefulPartitionedCall/StatefulPartitionedCall/StatefulPartitionedCall/predict/MobilenetV3/expanded_conv/project/Conv2D_weights", "shape": [1, 1, 16, 16], "dtype": "float32"}, {"name": "StatefulPartitionedCall/sequential_1/keras_layer_1/StatefulPartitionedCall/StatefulPartitionedCall/StatefulPartitionedCall/predict/MobilenetV3/expanded_conv_10/expand/Conv2D_bn_offset", "shape": [432], "dtype": "float32"}, {"name": "StatefulPartitionedCall/sequential_1/keras_layer_1/StatefulPartitionedCall/StatefulPartitionedCall/StatefulPartitionedCall/predict/MobilenetV3/expanded_conv/project/Conv2D_bn_offset", "shape": [16], "dtype": "float32"}, {"name": "StatefulPartitionedCall/sequential_1/keras_layer_1/StatefulPartitionedCall/StatefulPartitionedCall/StatefulPartitionedCall/predict/MobilenetV3/expanded_conv_1/expand/Conv2D_weights", "shape": [1, 1, 16, 72], "dtype": "float32"}, {"name": "StatefulPartitionedCall/sequential_1/keras_layer_1/StatefulPartitionedCall/StatefulPartitionedCall/StatefulPartitionedCall/predict/MobilenetV3/expanded_conv_1/expand/Conv2D_bn_offset", "shape": [72], "dtype": "float32"}, {"name": "StatefulPartitionedCall/sequential_1/keras_layer_1/StatefulPartitionedCall/StatefulPartitionedCall/StatefulPartitionedCall/predict/MobilenetV3/expanded_conv_1/depthwise/depthwise_weights", "shape": [3, 3, 72, 1], "dtype": "float32"}, {"name": "StatefulPartitionedCall/sequential_1/keras_layer_1/StatefulPartitionedCall/StatefulPartitionedCall/StatefulPartitionedCall/predict/MobilenetV3/expanded_conv_1/depthwise/depthwise_bn_offset", "shape": [72], "dtype": "float32"}, {"name": "StatefulPartitionedCall/sequential_1/keras_layer_1/StatefulPartitionedCall/StatefulPartitionedCall/StatefulPartitionedCall/predict/MobilenetV3/expanded_conv_1/project/Conv2D_weights", "shape": [1, 1, 72, 24], "dtype": "float32"}, {"name": "StatefulPartitionedCall/sequential_1/keras_layer_1/StatefulPartitionedCall/StatefulPartitionedCall/StatefulPartitionedCall/predict/MobilenetV3/expanded_conv_1/project/Conv2D_bn_offset", "shape": [24], "dtype": "float32"}, {"name": "StatefulPartitionedCall/sequential_1/keras_layer_1/StatefulPartitionedCall/StatefulPartitionedCall/StatefulPartitionedCall/predict/MobilenetV3/expanded_conv_2/expand/Conv2D_weights", "shape": [1, 1, 24, 88], "dtype": "float32"}, {"name": "StatefulPartitionedCall/sequential_1/keras_layer_1/StatefulPartitionedCall/StatefulPartitionedCall/StatefulPartitionedCall/predict/MobilenetV3/expanded_conv_2/expand/Conv2D_bn_offset", "shape": [88], "dtype": "float32"}, {"name": "StatefulPartitionedCall/sequential_1/keras_layer_1/StatefulPartitionedCall/StatefulPartitionedCall/StatefulPartitionedCall/predict/MobilenetV3/expanded_conv_2/depthwise/depthwise_weights", "shape": [3, 3, 88, 1], "dtype": "float32"}, {"name": "StatefulPartitionedCall/sequential_1/keras_layer_1/StatefulPartitionedCall/StatefulPartitionedCall/StatefulPartitionedCall/predict/MobilenetV3/expanded_conv_2/depthwise/depthwise_bn_offset", "shape": [88], "dtype": "float32"}, {"name": "StatefulPartitionedCall/sequential_1/keras_layer_1/StatefulPartitionedCall/StatefulPartitionedCall/StatefulPartitionedCall/predict/MobilenetV3/expanded_conv_2/project/Conv2D_weights", "shape": [1, 1, 88, 24], "dtype": "float32"}, {"name": "StatefulPartitionedCall/sequential_1/keras_layer_1/StatefulPartitionedCall/StatefulPartitionedCall/StatefulPartitionedCall/predict/MobilenetV3/expanded_conv_10/depthwise/depthwise_weights", "shape": [5, 5, 432, 1], "dtype": "float32"}, {"name": "StatefulPartitionedCall/sequential_1/keras_layer_1/StatefulPartitionedCall/StatefulPartitionedCall/StatefulPartitionedCall/predict/MobilenetV3/expanded_conv_2/project/Conv2D_bn_offset", "shape": [24], "dtype": "float32"}, {"name": "StatefulPartitionedCall/sequential_1/keras_layer_1/StatefulPartitionedCall/StatefulPartitionedCall/StatefulPartitionedCall/predict/MobilenetV3/expanded_conv_3/expand/Conv2D_weights", "shape": [1, 1, 24, 96], "dtype": "float32"}, {"name": "StatefulPartitionedCall/sequential_1/keras_layer_1/StatefulPartitionedCall/StatefulPartitionedCall/StatefulPartitionedCall/predict/MobilenetV3/expanded_conv_3/expand/Conv2D_bn_offset", "shape": [96], "dtype": "float32"}, {"name": "StatefulPartitionedCall/sequential_1/keras_layer_1/StatefulPartitionedCall/StatefulPartitionedCall/StatefulPartitionedCall/predict/MobilenetV3/expanded_conv_3/depthwise/depthwise_weights", "shape": [5, 5, 96, 1], "dtype": "float32"}, {"name": "StatefulPartitionedCall/sequential_1/keras_layer_1/StatefulPartitionedCall/StatefulPartitionedCall/StatefulPartitionedCall/predict/MobilenetV3/expanded_conv_3/depthwise/depthwise_bn_offset", "shape": [96], "dtype": "float32"}, {"name": "StatefulPartitionedCall/sequential_1/keras_layer_1/StatefulPartitionedCall/StatefulPartitionedCall/StatefulPartitionedCall/predict/MobilenetV3/expanded_conv_10/depthwise/depthwise_bn_offset", "shape": [432], "dtype": "float32"}, {"name": "StatefulPartitionedCall/sequential_1/keras_layer_1/StatefulPartitionedCall/StatefulPartitionedCall/StatefulPartitionedCall/predict/MobilenetV3/expanded_conv_3/project/Conv2D_weights", "shape": [1, 1, 96, 32], "dtype": "float32"}, {"name": "StatefulPartitionedCall/sequential_1/keras_layer_1/StatefulPartitionedCall/StatefulPartitionedCall/StatefulPartitionedCall/predict/MobilenetV3/expanded_conv_3/project/Conv2D_bn_offset", "shape": [32], "dtype": "float32"}, {"name": "StatefulPartitionedCall/sequential_1/keras_layer_1/StatefulPartitionedCall/StatefulPartitionedCall/StatefulPartitionedCall/predict/MobilenetV3/expanded_conv_4/expand/Conv2D_weights", "shape": [1, 1, 32, 192], "dtype": "float32"}, {"name": "StatefulPartitionedCall/sequential_1/keras_layer_1/StatefulPartitionedCall/StatefulPartitionedCall/StatefulPartitionedCall/predict/MobilenetV3/expanded_conv_4/expand/Conv2D_bn_offset", "shape": [192], "dtype": "float32"}, {"name": "StatefulPartitionedCall/sequential_1/keras_layer_1/StatefulPartitionedCall/StatefulPartitionedCall/StatefulPartitionedCall/predict/MobilenetV3/expanded_conv_4/depthwise/depthwise_weights", "shape": [5, 5, 192, 1], "dtype": "float32"}, {"name": "StatefulPartitionedCall/sequential_1/keras_layer_1/StatefulPartitionedCall/StatefulPartitionedCall/StatefulPartitionedCall/predict/MobilenetV3/expanded_conv_4/depthwise/depthwise_bn_offset", "shape": [192], "dtype": "float32"}, {"name": "StatefulPartitionedCall/sequential_1/keras_layer_1/StatefulPartitionedCall/StatefulPartitionedCall/StatefulPartitionedCall/predict/MobilenetV3/expanded_conv_4/project/Conv2D_weights", "shape": [1, 1, 192, 32], "dtype": "float32"}, {"name": "StatefulPartitionedCall/sequential_1/keras_layer_1/StatefulPartitionedCall/StatefulPartitionedCall/StatefulPartitionedCall/predict/MobilenetV3/expanded_conv_4/project/Conv2D_bn_offset", "shape": [32], "dtype": "float32"}, {"name": "StatefulPartitionedCall/sequential_1/keras_layer_1/StatefulPartitionedCall/StatefulPartitionedCall/StatefulPartitionedCall/predict/MobilenetV3/expanded_conv_5/expand/Conv2D_weights", "shape": [1, 1, 32, 192], "dtype": "float32"}, {"name": "StatefulPartitionedCall/sequential_1/keras_layer_1/StatefulPartitionedCall/StatefulPartitionedCall/StatefulPartitionedCall/predict/MobilenetV3/expanded_conv_5/expand/Conv2D_bn_offset", "shape": [192], "dtype": "float32"}, {"name": "StatefulPartitionedCall/sequential_1/keras_layer_1/StatefulPartitionedCall/StatefulPartitionedCall/StatefulPartitionedCall/predict/MobilenetV3/expanded_conv_5/depthwise/depthwise_weights", "shape": [5, 5, 192, 1], "dtype": "float32"}, {"name": "StatefulPartitionedCall/sequential_1/keras_layer_1/StatefulPartitionedCall/StatefulPartitionedCall/StatefulPartitionedCall/predict/MobilenetV3/expanded_conv_5/depthwise/depthwise_bn_offset", "shape": [192], "dtype": "float32"}, {"name": "StatefulPartitionedCall/sequential_1/keras_layer_1/StatefulPartitionedCall/StatefulPartitionedCall/StatefulPartitionedCall/predict/MobilenetV3/expanded_conv_5/project/Conv2D_weights", "shape": [1, 1, 192, 32], "dtype": "float32"}, {"name": "StatefulPartitionedCall/sequential_1/keras_layer_1/StatefulPartitionedCall/StatefulPartitionedCall/StatefulPartitionedCall/predict/MobilenetV3/expanded_conv_5/project/Conv2D_bn_offset", "shape": [32], "dtype": "float32"}, {"name": "StatefulPartitionedCall/sequential_1/keras_layer_1/StatefulPartitionedCall/StatefulPartitionedCall/StatefulPartitionedCall/predict/MobilenetV3/expanded_conv_6/expand/Conv2D_weights", "shape": [1, 1, 32, 96], "dtype": "float32"}, {"name": "StatefulPartitionedCall/sequential_1/keras_layer_1/StatefulPartitionedCall/StatefulPartitionedCall/StatefulPartitionedCall/predict/MobilenetV3/expanded_conv_6/expand/Conv2D_bn_offset", "shape": [96], "dtype": "float32"}, {"name": "StatefulPartitionedCall/sequential_1/keras_layer_1/StatefulPartitionedCall/StatefulPartitionedCall/StatefulPartitionedCall/predict/MobilenetV3/expanded_conv_6/depthwise/depthwise_weights", "shape": [5, 5, 96, 1], "dtype": "float32"}, {"name": "StatefulPartitionedCall/sequential_1/keras_layer_1/StatefulPartitionedCall/StatefulPartitionedCall/StatefulPartitionedCall/predict/MobilenetV3/expanded_conv_6/depthwise/depthwise_bn_offset", "shape": [96], "dtype": "float32"}, {"name": "StatefulPartitionedCall/sequential_1/keras_layer_1/StatefulPartitionedCall/StatefulPartitionedCall/StatefulPartitionedCall/predict/MobilenetV3/expanded_conv_10/project/Conv2D_weights", "shape": [1, 1, 432, 72], "dtype": "float32"}, {"name": "StatefulPartitionedCall/sequential_1/keras_layer_1/StatefulPartitionedCall/StatefulPartitionedCall/StatefulPartitionedCall/predict/MobilenetV3/expanded_conv_6/project/Conv2D_weights", "shape": [1, 1, 96, 40], "dtype": "float32"}, {"name": "StatefulPartitionedCall/sequential_1/keras_layer_1/StatefulPartitionedCall/StatefulPartitionedCall/StatefulPartitionedCall/predict/MobilenetV3/expanded_conv_10/project/Conv2D_bn_offset", "shape": [72], "dtype": "float32"}, {"name": "StatefulPartitionedCall/sequential_1/keras_layer_1/StatefulPartitionedCall/StatefulPartitionedCall/StatefulPartitionedCall/predict/MobilenetV3/expanded_conv_6/project/Conv2D_bn_offset", "shape": [40], "dtype": "float32"}, {"name": "StatefulPartitionedCall/sequential_1/keras_layer_1/StatefulPartitionedCall/StatefulPartitionedCall/StatefulPartitionedCall/predict/MobilenetV3/expanded_conv_7/expand/Conv2D_weights", "shape": [1, 1, 40, 120], "dtype": "float32"}, {"name": "StatefulPartitionedCall/sequential_1/keras_layer_1/StatefulPartitionedCall/StatefulPartitionedCall/StatefulPartitionedCall/predict/MobilenetV3/expanded_conv_7/expand/Conv2D_bn_offset", "shape": [120], "dtype": "float32"}, {"name": "StatefulPartitionedCall/sequential_1/keras_layer_1/StatefulPartitionedCall/StatefulPartitionedCall/StatefulPartitionedCall/predict/MobilenetV3/expanded_conv_7/depthwise/depthwise_weights", "shape": [5, 5, 120, 1], "dtype": "float32"}, {"name": "StatefulPartitionedCall/sequential_1/keras_layer_1/StatefulPartitionedCall/StatefulPartitionedCall/StatefulPartitionedCall/predict/MobilenetV3/expanded_conv_7/depthwise/depthwise_bn_offset", "shape": [120], "dtype": "float32"}, {"name": "StatefulPartitionedCall/sequential_1/keras_layer_1/StatefulPartitionedCall/StatefulPartitionedCall/StatefulPartitionedCall/predict/MobilenetV3/Conv_1/Conv2D_weights", "shape": [1, 1, 72, 432], "dtype": "float32"}, {"name": "StatefulPartitionedCall/sequential_1/keras_layer_1/StatefulPartitionedCall/StatefulPartitionedCall/StatefulPartitionedCall/predict/MobilenetV3/expanded_conv_7/project/Conv2D_weights", "shape": [1, 1, 120, 40], "dtype": "float32"}, {"name": "StatefulPartitionedCall/sequential_1/keras_layer_1/StatefulPartitionedCall/StatefulPartitionedCall/StatefulPartitionedCall/predict/MobilenetV3/Conv_1/Conv2D_bn_offset", "shape": [432], "dtype": "float32"}, {"name": "StatefulPartitionedCall/sequential_1/keras_layer_1/StatefulPartitionedCall/StatefulPartitionedCall/StatefulPartitionedCall/predict/MobilenetV3/expanded_conv_7/project/Conv2D_bn_offset", "shape": [40], "dtype": "float32"}, {"name": "StatefulPartitionedCall/sequential_1/keras_layer_1/StatefulPartitionedCall/StatefulPartitionedCall/StatefulPartitionedCall/predict/MobilenetV3/expanded_conv_8/expand/Conv2D_weights", "shape": [1, 1, 40, 240], "dtype": "float32"}, {"name": "StatefulPartitionedCall/sequential_1/keras_layer_1/StatefulPartitionedCall/StatefulPartitionedCall/StatefulPartitionedCall/predict/MobilenetV3/expanded_conv_8/expand/Conv2D_bn_offset", "shape": [240], "dtype": "float32"}, {"name": "StatefulPartitionedCall/sequential_1/keras_layer_1/StatefulPartitionedCall/StatefulPartitionedCall/StatefulPartitionedCall/predict/MobilenetV3/expanded_conv_8/depthwise/depthwise_weights", "shape": [5, 5, 240, 1], "dtype": "float32"}, {"name": "StatefulPartitionedCall/sequential_1/keras_layer_1/StatefulPartitionedCall/StatefulPartitionedCall/StatefulPartitionedCall/predict/MobilenetV3/expanded_conv_8/depthwise/depthwise_bn_offset", "shape": [240], "dtype": "float32"}, {"name": "StatefulPartitionedCall/sequential_1/keras_layer_1/StatefulPartitionedCall/StatefulPartitionedCall/StatefulPartitionedCall/predict/MobilenetV3/expanded_conv_8/project/Conv2D_weights", "shape": [1, 1, 240, 72], "dtype": "float32"}, {"name": "StatefulPartitionedCall/sequential_1/keras_layer_1/StatefulPartitionedCall/StatefulPartitionedCall/StatefulPartitionedCall/predict/MobilenetV3/expanded_conv_8/project/Conv2D_bn_offset", "shape": [72], "dtype": "float32"}, {"name": "StatefulPartitionedCall/sequential_1/keras_layer_1/StatefulPartitionedCall/StatefulPartitionedCall/StatefulPartitionedCall/predict/MobilenetV3/expanded_conv_9/expand/Conv2D_weights", "shape": [1, 1, 72, 432], "dtype": "float32"}, {"name": "StatefulPartitionedCall/sequential_1/keras_layer_1/StatefulPartitionedCall/StatefulPartitionedCall/StatefulPartitionedCall/predict/MobilenetV3/expanded_conv_9/expand/Conv2D_bn_offset", "shape": [432], "dtype": "float32"}, {"name": "StatefulPartitionedCall/sequential_1/keras_layer_1/StatefulPartitionedCall/StatefulPartitionedCall/StatefulPartitionedCall/predict/MobilenetV3/expanded_conv_9/depthwise/depthwise_weights", "shape": [5, 5, 432, 1], "dtype": "float32"}, {"name": "StatefulPartitionedCall/sequential_1/keras_layer_1/StatefulPartitionedCall/StatefulPartitionedCall/StatefulPartitionedCall/predict/MobilenetV3/expanded_conv_9/depthwise/depthwise_bn_offset", "shape": [432], "dtype": "float32"}, {"name": "StatefulPartitionedCall/sequential_1/keras_layer_1/StatefulPartitionedCall/StatefulPartitionedCall/StatefulPartitionedCall/predict/MobilenetV3/expanded_conv_9/project/Conv2D_weights", "shape": [1, 1, 432, 72], "dtype": "float32"}, {"name": "StatefulPartitionedCall/sequential_1/keras_layer_1/StatefulPartitionedCall/StatefulPartitionedCall/StatefulPartitionedCall/predict/MobilenetV3/expanded_conv_9/project/Conv2D_bn_offset", "shape": [72], "dtype": "float32"}, {"name": "StatefulPartitionedCall/sequential_1/keras_layer_1/StatefulPartitionedCall/StatefulPartitionedCall/StatefulPartitionedCall/predict/MobilenetV3/Conv_2/hard_swish/mul_1/y", "shape": [], "dtype": "float32"}, {"name": "StatefulPartitionedCall/sequential_1/keras_layer_1/StatefulPartitionedCall/StatefulPartitionedCall/StatefulPartitionedCall/predict/MobilenetV3/Conv_1/hard_swish/mul_1/y", "shape": [], "dtype": "float32"}, {"name": "StatefulPartitionedCall/sequential_1/keras_layer_1/StatefulPartitionedCall/StatefulPartitionedCall/StatefulPartitionedCall/predict/MobilenetV3/expanded_conv_10/squeeze_excite/Conv_1/mul/y", "shape": [], "dtype": "float32"}, {"name": "StatefulPartitionedCall/sequential_1/keras_layer_1/StatefulPartitionedCall/StatefulPartitionedCall/StatefulPartitionedCall/predict/MobilenetV3/expanded_conv_10/squeeze_excite/Mean/reduction_indices", "shape": [2], "dtype": "int32"}, {"name": "Func/StatefulPartitionedCall/sequential_1/keras_layer_1/StatefulPartitionedCall/StatefulPartitionedCall/StatefulPartitionedCall/input/_833", "shape": [1, 1, 432, 112], "dtype": "float32"}, {"name": "Func/StatefulPartitionedCall/sequential_1/keras_layer_1/StatefulPartitionedCall/StatefulPartitionedCall/StatefulPartitionedCall/input/_834", "shape": [112], "dtype": "float32"}, {"name": "Func/StatefulPartitionedCall/sequential_1/keras_layer_1/StatefulPartitionedCall/StatefulPartitionedCall/StatefulPartitionedCall/input/_835", "shape": [1, 1, 112, 432], "dtype": "float32"}, {"name": "Func/StatefulPartitionedCall/sequential_1/keras_layer_1/StatefulPartitionedCall/StatefulPartitionedCall/StatefulPartitionedCall/input/_836", "shape": [432], "dtype": "float32"}, {"name": "StatefulPartitionedCall/sequential_1/keras_layer_1/StatefulPartitionedCall/StatefulPartitionedCall/StatefulPartitionedCall/predict/MobilenetV3/expanded_conv_10/squeeze_excite/Conv_1/add/y", "shape": [], "dtype": "float32"}, {"name": "StatefulPartitionedCall/sequential_1/keras_layer_1/StatefulPartitionedCall/StatefulPartitionedCall/StatefulPartitionedCall/predict/MobilenetV3/expanded_conv_10/depthwise/hard_swish/mul_1/y", "shape": [], "dtype": "float32"}, {"name": "StatefulPartitionedCall/sequential_1/keras_layer_1/StatefulPartitionedCall/StatefulPartitionedCall/StatefulPartitionedCall/predict/MobilenetV3/expanded_conv_10/expand/hard_swish/mul_1/y", "shape": [], "dtype": "float32"}, {"name": "StatefulPartitionedCall/sequential_1/keras_layer_1/StatefulPartitionedCall/StatefulPartitionedCall/StatefulPartitionedCall/predict/MobilenetV3/expanded_conv_10/expand/hard_swish/add/y", "shape": [], "dtype": "float32"}, {"name": "StatefulPartitionedCall/sequential_1/keras_layer_1/StatefulPartitionedCall/StatefulPartitionedCall/StatefulPartitionedCall/predict/MobilenetV3/expanded_conv_10/depthwise/hard_swish/add/y", "shape": [], "dtype": "float32"}, {"name": "StatefulPartitionedCall/sequential_1/keras_layer_1/StatefulPartitionedCall/StatefulPartitionedCall/StatefulPartitionedCall/predict/MobilenetV3/expanded_conv_9/squeeze_excite/Conv_1/mul/y", "shape": [], "dtype": "float32"}, {"name": "StatefulPartitionedCall/sequential_1/keras_layer_1/StatefulPartitionedCall/StatefulPartitionedCall/StatefulPartitionedCall/predict/MobilenetV3/expanded_conv_9/squeeze_excite/Mean/reduction_indices", "shape": [2], "dtype": "int32"}, {"name": "Func/StatefulPartitionedCall/sequential_1/keras_layer_1/StatefulPartitionedCall/StatefulPartitionedCall/StatefulPartitionedCall/input/_814", "shape": [1, 1, 432, 112], "dtype": "float32"}, {"name": "Func/StatefulPartitionedCall/sequential_1/keras_layer_1/StatefulPartitionedCall/StatefulPartitionedCall/StatefulPartitionedCall/input/_815", "shape": [112], "dtype": "float32"}, {"name": "Func/StatefulPartitionedCall/sequential_1/keras_layer_1/StatefulPartitionedCall/StatefulPartitionedCall/StatefulPartitionedCall/input/_816", "shape": [1, 1, 112, 432], "dtype": "float32"}, {"name": "Func/StatefulPartitionedCall/sequential_1/keras_layer_1/StatefulPartitionedCall/StatefulPartitionedCall/StatefulPartitionedCall/input/_817", "shape": [432], "dtype": "float32"}, {"name": "StatefulPartitionedCall/sequential_1/keras_layer_1/StatefulPartitionedCall/StatefulPartitionedCall/StatefulPartitionedCall/predict/MobilenetV3/expanded_conv_9/squeeze_excite/Conv_1/add/y", "shape": [], "dtype": "float32"}, {"name": "StatefulPartitionedCall/sequential_1/keras_layer_1/StatefulPartitionedCall/StatefulPartitionedCall/StatefulPartitionedCall/predict/MobilenetV3/expanded_conv_9/depthwise/hard_swish/mul_1/y", "shape": [], "dtype": "float32"}, {"name": "StatefulPartitionedCall/sequential_1/keras_layer_1/StatefulPartitionedCall/StatefulPartitionedCall/StatefulPartitionedCall/predict/MobilenetV3/expanded_conv_9/expand/hard_swish/mul_1/y", "shape": [], "dtype": "float32"}, {"name": "StatefulPartitionedCall/sequential_1/keras_layer_1/StatefulPartitionedCall/StatefulPartitionedCall/StatefulPartitionedCall/predict/MobilenetV3/expanded_conv_9/expand/hard_swish/add/y", "shape": [], "dtype": "float32"}, {"name": "StatefulPartitionedCall/sequential_1/keras_layer_1/StatefulPartitionedCall/StatefulPartitionedCall/StatefulPartitionedCall/predict/MobilenetV3/expanded_conv_9/depthwise/hard_swish/add/y", "shape": [], "dtype": "float32"}, {"name": "StatefulPartitionedCall/sequential_1/keras_layer_1/StatefulPartitionedCall/StatefulPartitionedCall/StatefulPartitionedCall/predict/MobilenetV3/expanded_conv_8/squeeze_excite/Conv_1/mul/y", "shape": [], "dtype": "float32"}, {"name": "StatefulPartitionedCall/sequential_1/keras_layer_1/StatefulPartitionedCall/StatefulPartitionedCall/StatefulPartitionedCall/predict/MobilenetV3/expanded_conv_8/squeeze_excite/Mean/reduction_indices", "shape": [2], "dtype": "int32"}, {"name": "Func/StatefulPartitionedCall/sequential_1/keras_layer_1/StatefulPartitionedCall/StatefulPartitionedCall/StatefulPartitionedCall/input/_795", "shape": [1, 1, 240, 64], "dtype": "float32"}, {"name": "Func/StatefulPartitionedCall/sequential_1/keras_layer_1/StatefulPartitionedCall/StatefulPartitionedCall/StatefulPartitionedCall/input/_796", "shape": [64], "dtype": "float32"}, {"name": "Func/StatefulPartitionedCall/sequential_1/keras_layer_1/StatefulPartitionedCall/StatefulPartitionedCall/StatefulPartitionedCall/input/_797", "shape": [1, 1, 64, 240], "dtype": "float32"}, {"name": "Func/StatefulPartitionedCall/sequential_1/keras_layer_1/StatefulPartitionedCall/StatefulPartitionedCall/StatefulPartitionedCall/input/_798", "shape": [240], "dtype": "float32"}, {"name": "StatefulPartitionedCall/sequential_1/keras_layer_1/StatefulPartitionedCall/StatefulPartitionedCall/StatefulPartitionedCall/predict/MobilenetV3/expanded_conv_8/squeeze_excite/Conv_1/add/y", "shape": [], "dtype": "float32"}, {"name": "StatefulPartitionedCall/sequential_1/keras_layer_1/StatefulPartitionedCall/StatefulPartitionedCall/StatefulPartitionedCall/predict/MobilenetV3/expanded_conv_8/depthwise/hard_swish/mul_1/y", "shape": [], "dtype": "float32"}, {"name": "StatefulPartitionedCall/sequential_1/keras_layer_1/StatefulPartitionedCall/StatefulPartitionedCall/StatefulPartitionedCall/predict/MobilenetV3/expanded_conv_8/expand/hard_swish/mul_1/y", "shape": [], "dtype": "float32"}, {"name": "StatefulPartitionedCall/sequential_1/keras_layer_1/StatefulPartitionedCall/StatefulPartitionedCall/StatefulPartitionedCall/predict/MobilenetV3/expanded_conv_7/squeeze_excite/Conv_1/mul/y", "shape": [], "dtype": "float32"}, {"name": "StatefulPartitionedCall/sequential_1/keras_layer_1/StatefulPartitionedCall/StatefulPartitionedCall/StatefulPartitionedCall/predict/MobilenetV3/expanded_conv_7/squeeze_excite/Mean/reduction_indices", "shape": [2], "dtype": "int32"}, {"name": "Func/StatefulPartitionedCall/sequential_1/keras_layer_1/StatefulPartitionedCall/StatefulPartitionedCall/StatefulPartitionedCall/input/_776", "shape": [1, 1, 120, 32], "dtype": "float32"}, {"name": "Func/StatefulPartitionedCall/sequential_1/keras_layer_1/StatefulPartitionedCall/StatefulPartitionedCall/StatefulPartitionedCall/input/_777", "shape": [32], "dtype": "float32"}, {"name": "Func/StatefulPartitionedCall/sequential_1/keras_layer_1/StatefulPartitionedCall/StatefulPartitionedCall/StatefulPartitionedCall/input/_778", "shape": [1, 1, 32, 120], "dtype": "float32"}, {"name": "Func/StatefulPartitionedCall/sequential_1/keras_layer_1/StatefulPartitionedCall/StatefulPartitionedCall/StatefulPartitionedCall/input/_779", "shape": [120], "dtype": "float32"}, {"name": "StatefulPartitionedCall/sequential_1/keras_layer_1/StatefulPartitionedCall/StatefulPartitionedCall/StatefulPartitionedCall/predict/MobilenetV3/expanded_conv_7/squeeze_excite/Conv_1/add/y", "shape": [], "dtype": "float32"}, {"name": "StatefulPartitionedCall/sequential_1/keras_layer_1/StatefulPartitionedCall/StatefulPartitionedCall/StatefulPartitionedCall/predict/MobilenetV3/expanded_conv_7/depthwise/hard_swish/mul_1/y", "shape": [], "dtype": "float32"}, {"name": "StatefulPartitionedCall/sequential_1/keras_layer_1/StatefulPartitionedCall/StatefulPartitionedCall/StatefulPartitionedCall/predict/MobilenetV3/expanded_conv_7/expand/hard_swish/mul_1/y", "shape": [], "dtype": "float32"}, {"name": "StatefulPartitionedCall/sequential_1/keras_layer_1/StatefulPartitionedCall/StatefulPartitionedCall/StatefulPartitionedCall/predict/MobilenetV3/expanded_conv_7/expand/hard_swish/add/y", "shape": [], "dtype": "float32"}, {"name": "StatefulPartitionedCall/sequential_1/keras_layer_1/StatefulPartitionedCall/StatefulPartitionedCall/StatefulPartitionedCall/predict/MobilenetV3/expanded_conv_7/depthwise/hard_swish/add/y", "shape": [], "dtype": "float32"}, {"name": "StatefulPartitionedCall/sequential_1/keras_layer_1/StatefulPartitionedCall/StatefulPartitionedCall/StatefulPartitionedCall/predict/MobilenetV3/expanded_conv_6/squeeze_excite/Conv_1/mul/y", "shape": [], "dtype": "float32"}, {"name": "StatefulPartitionedCall/sequential_1/keras_layer_1/StatefulPartitionedCall/StatefulPartitionedCall/StatefulPartitionedCall/predict/MobilenetV3/expanded_conv_6/squeeze_excite/Mean/reduction_indices", "shape": [2], "dtype": "int32"}, {"name": "Func/StatefulPartitionedCall/sequential_1/keras_layer_1/StatefulPartitionedCall/StatefulPartitionedCall/StatefulPartitionedCall/input/_757", "shape": [1, 1, 96, 24], "dtype": "float32"}, {"name": "Func/StatefulPartitionedCall/sequential_1/keras_layer_1/StatefulPartitionedCall/StatefulPartitionedCall/StatefulPartitionedCall/input/_758", "shape": [24], "dtype": "float32"}, {"name": "Func/StatefulPartitionedCall/sequential_1/keras_layer_1/StatefulPartitionedCall/StatefulPartitionedCall/StatefulPartitionedCall/input/_759", "shape": [1, 1, 24, 96], "dtype": "float32"}, {"name": "Func/StatefulPartitionedCall/sequential_1/keras_layer_1/StatefulPartitionedCall/StatefulPartitionedCall/StatefulPartitionedCall/input/_760", "shape": [96], "dtype": "float32"}, {"name": "StatefulPartitionedCall/sequential_1/keras_layer_1/StatefulPartitionedCall/StatefulPartitionedCall/StatefulPartitionedCall/predict/MobilenetV3/expanded_conv_6/squeeze_excite/Conv_1/add/y", "shape": [], "dtype": "float32"}, {"name": "StatefulPartitionedCall/sequential_1/keras_layer_1/StatefulPartitionedCall/StatefulPartitionedCall/StatefulPartitionedCall/predict/MobilenetV3/expanded_conv_6/depthwise/hard_swish/mul_1/y", "shape": [], "dtype": "float32"}, {"name": "StatefulPartitionedCall/sequential_1/keras_layer_1/StatefulPartitionedCall/StatefulPartitionedCall/StatefulPartitionedCall/predict/MobilenetV3/expanded_conv_6/expand/hard_swish/mul_1/y", "shape": [], "dtype": "float32"}, {"name": "StatefulPartitionedCall/sequential_1/keras_layer_1/StatefulPartitionedCall/StatefulPartitionedCall/StatefulPartitionedCall/predict/MobilenetV3/expanded_conv_5/squeeze_excite/Conv_1/mul/y", "shape": [], "dtype": "float32"}, {"name": "StatefulPartitionedCall/sequential_1/keras_layer_1/StatefulPartitionedCall/StatefulPartitionedCall/StatefulPartitionedCall/predict/MobilenetV3/expanded_conv_5/squeeze_excite/Mean/reduction_indices", "shape": [2], "dtype": "int32"}, {"name": "Func/StatefulPartitionedCall/sequential_1/keras_layer_1/StatefulPartitionedCall/StatefulPartitionedCall/StatefulPartitionedCall/input/_738", "shape": [1, 1, 192, 48], "dtype": "float32"}, {"name": "Func/StatefulPartitionedCall/sequential_1/keras_layer_1/StatefulPartitionedCall/StatefulPartitionedCall/StatefulPartitionedCall/input/_739", "shape": [48], "dtype": "float32"}, {"name": "Func/StatefulPartitionedCall/sequential_1/keras_layer_1/StatefulPartitionedCall/StatefulPartitionedCall/StatefulPartitionedCall/input/_740", "shape": [1, 1, 48, 192], "dtype": "float32"}, {"name": "Func/StatefulPartitionedCall/sequential_1/keras_layer_1/StatefulPartitionedCall/StatefulPartitionedCall/StatefulPartitionedCall/input/_741", "shape": [192], "dtype": "float32"}, {"name": "StatefulPartitionedCall/sequential_1/keras_layer_1/StatefulPartitionedCall/StatefulPartitionedCall/StatefulPartitionedCall/predict/MobilenetV3/expanded_conv_5/squeeze_excite/Conv_1/add/y", "shape": [], "dtype": "float32"}, {"name": "StatefulPartitionedCall/sequential_1/keras_layer_1/StatefulPartitionedCall/StatefulPartitionedCall/StatefulPartitionedCall/predict/MobilenetV3/expanded_conv_5/depthwise/hard_swish/mul_1/y", "shape": [], "dtype": "float32"}, {"name": "StatefulPartitionedCall/sequential_1/keras_layer_1/StatefulPartitionedCall/StatefulPartitionedCall/StatefulPartitionedCall/predict/MobilenetV3/expanded_conv_5/expand/hard_swish/mul_1/y", "shape": [], "dtype": "float32"}, {"name": "StatefulPartitionedCall/sequential_1/keras_layer_1/StatefulPartitionedCall/StatefulPartitionedCall/StatefulPartitionedCall/predict/MobilenetV3/expanded_conv_5/expand/hard_swish/add/y", "shape": [], "dtype": "float32"}, {"name": "StatefulPartitionedCall/sequential_1/keras_layer_1/StatefulPartitionedCall/StatefulPartitionedCall/StatefulPartitionedCall/predict/MobilenetV3/expanded_conv_5/depthwise/hard_swish/add/y", "shape": [], "dtype": "float32"}, {"name": "StatefulPartitionedCall/sequential_1/keras_layer_1/StatefulPartitionedCall/StatefulPartitionedCall/StatefulPartitionedCall/predict/MobilenetV3/expanded_conv_4/squeeze_excite/Conv_1/mul/y", "shape": [], "dtype": "float32"}, {"name": "StatefulPartitionedCall/sequential_1/keras_layer_1/StatefulPartitionedCall/StatefulPartitionedCall/StatefulPartitionedCall/predict/MobilenetV3/expanded_conv_4/squeeze_excite/Mean/reduction_indices", "shape": [2], "dtype": "int32"}, {"name": "Func/StatefulPartitionedCall/sequential_1/keras_layer_1/StatefulPartitionedCall/StatefulPartitionedCall/StatefulPartitionedCall/input/_719", "shape": [1, 1, 192, 48], "dtype": "float32"}, {"name": "Func/StatefulPartitionedCall/sequential_1/keras_layer_1/StatefulPartitionedCall/StatefulPartitionedCall/StatefulPartitionedCall/input/_720", "shape": [48], "dtype": "float32"}, {"name": "Func/StatefulPartitionedCall/sequential_1/keras_layer_1/StatefulPartitionedCall/StatefulPartitionedCall/StatefulPartitionedCall/input/_721", "shape": [1, 1, 48, 192], "dtype": "float32"}, {"name": "Func/StatefulPartitionedCall/sequential_1/keras_layer_1/StatefulPartitionedCall/StatefulPartitionedCall/StatefulPartitionedCall/input/_722", "shape": [192], "dtype": "float32"}, {"name": "StatefulPartitionedCall/sequential_1/keras_layer_1/StatefulPartitionedCall/StatefulPartitionedCall/StatefulPartitionedCall/predict/MobilenetV3/expanded_conv_4/squeeze_excite/Conv_1/add/y", "shape": [], "dtype": "float32"}, {"name": "StatefulPartitionedCall/sequential_1/keras_layer_1/StatefulPartitionedCall/StatefulPartitionedCall/StatefulPartitionedCall/predict/MobilenetV3/expanded_conv_4/depthwise/hard_swish/mul_1/y", "shape": [], "dtype": "float32"}, {"name": "StatefulPartitionedCall/sequential_1/keras_layer_1/StatefulPartitionedCall/StatefulPartitionedCall/StatefulPartitionedCall/predict/MobilenetV3/expanded_conv_4/expand/hard_swish/mul_1/y", "shape": [], "dtype": "float32"}, {"name": "StatefulPartitionedCall/sequential_1/keras_layer_1/StatefulPartitionedCall/StatefulPartitionedCall/StatefulPartitionedCall/predict/MobilenetV3/expanded_conv_4/expand/hard_swish/add/y", "shape": [], "dtype": "float32"}, {"name": "StatefulPartitionedCall/sequential_1/keras_layer_1/StatefulPartitionedCall/StatefulPartitionedCall/StatefulPartitionedCall/predict/MobilenetV3/expanded_conv_4/depthwise/hard_swish/add/y", "shape": [], "dtype": "float32"}, {"name": "StatefulPartitionedCall/sequential_1/keras_layer_1/StatefulPartitionedCall/StatefulPartitionedCall/StatefulPartitionedCall/predict/MobilenetV3/expanded_conv_3/squeeze_excite/Conv_1/mul/y", "shape": [], "dtype": "float32"}, {"name": "StatefulPartitionedCall/sequential_1/keras_layer_1/StatefulPartitionedCall/StatefulPartitionedCall/StatefulPartitionedCall/predict/MobilenetV3/expanded_conv_3/squeeze_excite/Mean/reduction_indices", "shape": [2], "dtype": "int32"}, {"name": "Func/StatefulPartitionedCall/sequential_1/keras_layer_1/StatefulPartitionedCall/StatefulPartitionedCall/StatefulPartitionedCall/input/_700", "shape": [1, 1, 96, 24], "dtype": "float32"}, {"name": "Func/StatefulPartitionedCall/sequential_1/keras_layer_1/StatefulPartitionedCall/StatefulPartitionedCall/StatefulPartitionedCall/input/_701", "shape": [24], "dtype": "float32"}, {"name": "Func/StatefulPartitionedCall/sequential_1/keras_layer_1/StatefulPartitionedCall/StatefulPartitionedCall/StatefulPartitionedCall/input/_702", "shape": [1, 1, 24, 96], "dtype": "float32"}, {"name": "Func/StatefulPartitionedCall/sequential_1/keras_layer_1/StatefulPartitionedCall/StatefulPartitionedCall/StatefulPartitionedCall/input/_703", "shape": [96], "dtype": "float32"}, {"name": "StatefulPartitionedCall/sequential_1/keras_layer_1/StatefulPartitionedCall/StatefulPartitionedCall/StatefulPartitionedCall/predict/MobilenetV3/expanded_conv_3/squeeze_excite/Conv_1/add/y", "shape": [], "dtype": "float32"}, {"name": "StatefulPartitionedCall/sequential_1/keras_layer_1/StatefulPartitionedCall/StatefulPartitionedCall/StatefulPartitionedCall/predict/MobilenetV3/expanded_conv_3/depthwise/hard_swish/mul_1/y", "shape": [], "dtype": "float32"}, {"name": "StatefulPartitionedCall/sequential_1/keras_layer_1/StatefulPartitionedCall/StatefulPartitionedCall/StatefulPartitionedCall/predict/MobilenetV3/expanded_conv_3/expand/hard_swish/mul_1/y", "shape": [], "dtype": "float32"}, {"name": "StatefulPartitionedCall/sequential_1/keras_layer_1/StatefulPartitionedCall/StatefulPartitionedCall/StatefulPartitionedCall/predict/MobilenetV3/expanded_conv/squeeze_excite/Conv_1/mul/y", "shape": [], "dtype": "float32"}, {"name": "StatefulPartitionedCall/sequential_1/keras_layer_1/StatefulPartitionedCall/StatefulPartitionedCall/StatefulPartitionedCall/predict/MobilenetV3/expanded_conv/squeeze_excite/Mean/reduction_indices", "shape": [2], "dtype": "int32"}, {"name": "Func/StatefulPartitionedCall/sequential_1/keras_layer_1/StatefulPartitionedCall/StatefulPartitionedCall/StatefulPartitionedCall/input/_651", "shape": [1, 1, 16, 8], "dtype": "float32"}, {"name": "Func/StatefulPartitionedCall/sequential_1/keras_layer_1/StatefulPartitionedCall/StatefulPartitionedCall/StatefulPartitionedCall/input/_652", "shape": [8], "dtype": "float32"}, {"name": "Func/StatefulPartitionedCall/sequential_1/keras_layer_1/StatefulPartitionedCall/StatefulPartitionedCall/StatefulPartitionedCall/input/_653", "shape": [1, 1, 8, 16], "dtype": "float32"}, {"name": "Func/StatefulPartitionedCall/sequential_1/keras_layer_1/StatefulPartitionedCall/StatefulPartitionedCall/StatefulPartitionedCall/input/_654", "shape": [16], "dtype": "float32"}, {"name": "StatefulPartitionedCall/sequential_1/keras_layer_1/StatefulPartitionedCall/StatefulPartitionedCall/StatefulPartitionedCall/predict/MobilenetV3/expanded_conv/squeeze_excite/Conv_1/add/y", "shape": [], "dtype": "float32"}, {"name": "StatefulPartitionedCall/sequential_1/keras_layer_1/StatefulPartitionedCall/StatefulPartitionedCall/StatefulPartitionedCall/predict/MobilenetV3/Conv/hard_swish/mul_1/y", "shape": [], "dtype": "float32"}, {"name": "StatefulPartitionedCall/sequential_1/keras_layer_1/StatefulPartitionedCall/StatefulPartitionedCall/StatefulPartitionedCall/predict/hub_input/Mul/y", "shape": [], "dtype": "float32"}, {"name": "StatefulPartitionedCall/sequential_1/keras_layer_1/StatefulPartitionedCall/StatefulPartitionedCall/StatefulPartitionedCall/predict/hub_input/Sub/y", "shape": [], "dtype": "float32"}, {"name": "StatefulPartitionedCall/sequential_1/keras_layer_1/StatefulPartitionedCall/StatefulPartitionedCall/StatefulPartitionedCall/predict/MobilenetV3/Conv/hard_swish/add/y", "shape": [], "dtype": "float32"}, {"name": "StatefulPartitionedCall/sequential_1/keras_layer_1/StatefulPartitionedCall/StatefulPartitionedCall/StatefulPartitionedCall/predict/MobilenetV3/expanded_conv_3/expand/hard_swish/add/y", "shape": [], "dtype": "float32"}, {"name": "StatefulPartitionedCall/sequential_1/keras_layer_1/StatefulPartitionedCall/StatefulPartitionedCall/StatefulPartitionedCall/predict/MobilenetV3/expanded_conv_3/depthwise/hard_swish/add/y", "shape": [], "dtype": "float32"}, {"name": "StatefulPartitionedCall/sequential_1/keras_layer_1/StatefulPartitionedCall/StatefulPartitionedCall/StatefulPartitionedCall/predict/MobilenetV3/expanded_conv_6/expand/hard_swish/add/y", "shape": [], "dtype": "float32"}, {"name": "StatefulPartitionedCall/sequential_1/keras_layer_1/StatefulPartitionedCall/StatefulPartitionedCall/StatefulPartitionedCall/predict/MobilenetV3/expanded_conv_6/depthwise/hard_swish/add/y", "shape": [], "dtype": "float32"}, {"name": "StatefulPartitionedCall/sequential_1/keras_layer_1/StatefulPartitionedCall/StatefulPartitionedCall/StatefulPartitionedCall/predict/MobilenetV3/expanded_conv_8/expand/hard_swish/add/y", "shape": [], "dtype": "float32"}, {"name": "StatefulPartitionedCall/sequential_1/keras_layer_1/StatefulPartitionedCall/StatefulPartitionedCall/StatefulPartitionedCall/predict/MobilenetV3/expanded_conv_8/depthwise/hard_swish/add/y", "shape": [], "dtype": "float32"}, {"name": "StatefulPartitionedCall/sequential_1/keras_layer_1/StatefulPartitionedCall/StatefulPartitionedCall/StatefulPartitionedCall/predict/MobilenetV3/Conv_1/hard_swish/add/y", "shape": [], "dtype": "float32"}, {"name": "Func/StatefulPartitionedCall/sequential_1/keras_layer_1/StatefulPartitionedCall/StatefulPartitionedCall/StatefulPartitionedCall/input/_847", "shape": [1, 1, 432, 1024], "dtype": "float32"}, {"name": "Func/StatefulPartitionedCall/sequential_1/keras_layer_1/StatefulPartitionedCall/StatefulPartitionedCall/StatefulPartitionedCall/input/_848", "shape": [1024], "dtype": "float32"}, {"name": "StatefulPartitionedCall/sequential_1/keras_layer_1/StatefulPartitionedCall/StatefulPartitionedCall/StatefulPartitionedCall/predict/MobilenetV3/Conv_2/hard_swish/add/y", "shape": [], "dtype": "float32"}]}]}